app/src/main/assets/gesturesModel.tflite (tflite, 481168 bytes, 15 tensors)

sequential_1/dense_5/MatMul f4 [11, 32]
0	0xbe962198	-0.29322505
1	0xbe29a89e	-0.16568229
2	0x3e54873f	0.20754717
3	0x3e490642	0.19631293
4	0x3e31b4da	0.17354146
5	0xbee92032	-0.45532376
6	0x3e77ac22	0.24186757
7	0xbe46319c	-0.19354862
8	0x3dc579d6	0.09642379
9	0x3e35fab6	0.1777142
10	0x3e5192b8	0.20466125
11	0x3dd8a320	0.105779886
12	0xbd38cce2	-0.045117266
13	0x3e246ce4	0.16057163
14	0x3e8e83c1	0.27834895
15	0x3e87a38c	0.26491964
16	0xbe156cc6	-0.14592275
17	0x3e204039	0.15649499
18	0xbc4f6472	-0.012658225
19	0xbeb1db03	-0.34737405
20	0x3e57264e	0.21010706
21	0x3d0ce547	0.034398343
22	0x3e453dc5	0.19261844
23	0x3e76c062	0.24096826
24	0xbee0acc7	-0.4388182
25	0xbe89ace9	-0.26889732
26	0xbed1f810	-0.4100957
27	0xbf001701	-0.500351
28	0x3d525052	0.05134613
29	0xbe925ff0	-0.2858882
30	0x3d2217be	0.039573424
31	0xbe8ece6a	-0.27891856
32	0x3d0bcb1f	0.03412926
33	0xbdc6c04a	-0.09704645
34	0xbc9f4c65	-0.019445607
35	0x3e554cfd	0.2083015
36	0xbebbb853	-0.36664066
37	0x3eb7e917	0.3592002
38	0xbc9cce24	-0.019141264
39	0xba034604	-0.00050076866
40	0x3ea72c55	0.3265101
41	0x3e710d60	0.23540258
42	0x3e027282	0.12738994
43	0x3e9be7f9	0.3045042
44	0x3b487ba9	0.0030591285
45	0xbeaf81de	-0.34278768
46	0x3e04bf12	0.12963513
47	0x3e916035	0.28393713
48	0x3e51d28a	0.2049047
49	0x3e3effff	0.18652342
50	0xbe593732	-0.21212462
51	0x3e237b62	0.15965036
52	0xbe4644dc	-0.19362205
53	0xbdab59cd	-0.083667375
54	0xbe4d1c36	-0.20030293
55	0xbeda0266	-0.42579955
56	0x3e723a87	0.23655139
57	0xbe6b6d97	-0.22991024
58	0x3d13858e	0.03601604
59	0xbe3fdd3a	-0.18736735
60	0x3e8e4b1f	0.27791688
61	0xbf207579	-0.6267925
62	0x3e730948	0.2373401
63	0xbe0d23e3	-0.13783221
64	0x3d06f753	0.03295071
65	0xbed856c4	-0.42253697
66	0xbe039d19	-0.12852897
67	0xbde28742	-0.11060955
68	0xbd9db246	-0.077000186
69	0xbe3704d1	-0.17872931
70	0xbdbe85af	-0.09302842
71	0xbe413e04	-0.18871313
72	0xbe0e3cdb	-0.13890402
73	0x3ea315a3	0.31852445
74	0x3e2078af	0.15671037
75	0xbd6a2ba0	-0.05717051
76	0xbeb4ec61	-0.35336593
77	0x3e1cb6fe	0.15304181
78	0xbe5c3feb	-0.21508758
79	0xbe8b30ac	-0.2718557
80	0xbe3f0318	-0.18653524
81	0x3d8243aa	0.06360562
82	0x3eba88c7	0.36432478
83	0xbc1fb664	-0.009748075
84	0x3e4ddf34	0.20104676
85	0x3dd81220	0.10550332
86	0xbeac4a87	-0.3365061
87	0x3ea966f6	0.33086365
88	0xbeb73363	-0.35781392
89	0x3ea58e75	0.3233525
90	0xbd8a8ffa	-0.067657426
91	0xbf3f3f2d	-0.74705774
92	0xbecf4a6d	-0.4048647
93	0x3e4a7817	0.19772373
94	0xbe96e993	-0.29475078
95	0xbcef3e77	-0.02920459
96	0xbe114e20	-0.14189959
97	0x3d0c9f25	0.03433146
98	0xbea27c1a	-0.31735307
99	0x3e9af11c	0.30262077
100	0xbdf9f8f0	-0.12205684
101	0x3e966394	0.29372847
102	0xbee649a9	-0.44978073
103	0x3e64e5e9	0.22353329
104	0x3e7f9eb4	0.24962884
105	0xbead57ff	-0.33856198
106	0xbe72ae96	-0.23699412
107	0xbe5b7df0	-0.2143476
108	0xbed83248	-0.42225862
109	0xbbb47e5c	-0.0055082273
110	0xbd7b0478	-0.06128356
111	0x3de262fc	0.11054036
112	0x3e6dc81a	0.23220864
113	0xbceaab49	-0.028646128
114	0x3bb11531	0.0054041375
115	0xbe63d2f1	-0.22248437
116	0x3dbe0eff	0.09280204
117	0xbe05b733	-0.13058166
118	0xbeac7a9c	-0.33687294
119	0x3e9d0d6b	0.306743
120	0xbee244db	-0.44193158
121	0x3e2b0a74	0.16703206
122	0xbe83bde6	-0.2573082
123	0xbe6878d5	-0.22702344
124	0x3eadc022	0.33935648
125	0xbe42bc08	-0.1901704
126	0x3dcc56ce	0.09977494
127	0xbee54977	-0.44782612
128	0xbc320b9f	-0.0108670285
129	0xbd91ff02	-0.07128717
130	0xbde0952e	-0.10965954
131	0xbd8bdaeb	-0.06828865
132	0x3e88b1a1	0.2669802
133	0x3ec4aff9	0.38415506
134	0xbf0316cf	-0.5120668
135	0xbdb69f6b	-0.08917125
136	0xbe2c6dff	-0.16838835
137	0x3e5d1a87	0.2159215
138	0x3ef5c813	0.48004207
139	0xbd862f15	-0.06551949
140	0xbee53767	-0.4476883
141	0xbc1ee698	-0.0096985325
142	0xbee0c914	-0.4390341
143	0x3dff115b	0.12454482
144	0xbdbc02a2	-0.0918019
145	0xbf20dc04	-0.6283572
146	0x3e9293b0	0.28628302
147	0x3ddca708	0.10774046
148	0xbc7442dd	-0.01490852
149	0x3cf77d26	0.030211043
150	0x3ba6ea4c	0.0050938483
151	0x3da6a546	0.08136992
152	0xbf19a8fc	-0.60023475
153	0xbe7a55fd	-0.24446864
154	0x3ee71460	0.45132732
155	0x3dc74379	0.09729666
156	0x3d91d27d	0.071202256
157	0xbead16e1	-0.33806518
158	0xbe95a7f8	-0.29229712
159	0x3e4fb7a2	0.20284894
160	0x3e570695	0.20998605
161	0xbe96b709	-0.2943652
162	0x3e06d534	0.13167268
163	0x3dde7ceb	0.1086367
164	0xbd186923	-0.03720964
165	0x3e84350a	0.25821716
166	0x3eb1d63a	0.34733754
167	0xbe7c01a2	-0.24609998
168	0x3e297045	0.16546734
169	0xbf210b9e	-0.6290835
170	0xbe116e14	-0.14202148
171	0x3e86e3f9	0.26345804
172	0xbe0f84ef	-0.14015554
173	0xbda829fa	-0.082111314
174	0xbe0eb2cd	-0.13935395
175	0xbd882610	-0.06647885
176	0xbe1fffff	-0.15624999
177	0x3e64a5a8	0.22328818
178	0x3ed5ba0c	0.41743505
179	0xbf07e13f	-0.53078073
180	0xbd69f8a0	-0.057121873
181	0x3e57e672	0.21084002
182	0xbc21598a	-0.009848008
183	0xbeedd42f	-0.46450946
184	0x3e6a92b2	0.22907522
185	0xbea578b5	-0.32318655
186	0xbe9321f4	-0.28736842
187	0x3eb4c557	0.35306808
188	0xbeaa73dd	-0.33291522
189	0xbea1d40a	-0.31607085
190	0xbf3c6bbd	-0.73601896
191	0xbe9bdc48	-0.304415
192	0xbf414267	-0.75491947
193	0xbeebe9cf	-0.4607682
194	0x3e9f05cf	0.3105912
195	0xbf3c88db	-0.73646325
196	0xbddee506	-0.108835265
197	0x3d57418e	0.052552752
198	0x3e34392e	0.17599937
199	0xbcdd1d58	-0.026991531
200	0xbe3af3a9	-0.18257011
201	0xbe5bb3ad	-0.2145526
202	0xbe4a2461	-0.1974044
203	0xbf11438a	-0.5674368
204	0xbef8c2a3	-0.48585996
205	0x3eea8a19	0.45808485
206	0x3e0d0c6e	0.13774273
207	0xbe91dbb4	-0.28487933
208	0x3dfd4cd4	0.123681694
209	0x3d0d0633	0.03442974
210	0xbd9fbba3	-0.07799461
211	0x3e108981	0.14114954
212	0x3ddd10f3	0.107942484
213	0x3e30e0a5	0.17273195
214	0xbe794b18	-0.24345052
215	0xbd9aa597	-0.07551115
216	0xbf29db15	-0.6634992
217	0x3dc22168	0.09479028
218	0xbec2cb62	-0.38045794
219	0xbeaa7331	-0.3329101
220	0xbe79231e	-0.24329802
221	0xbe54dbcd	-0.20786972
222	0xbe27e1d4	-0.1639474
223	0xbc396813	-0.011316317
224	0x3e1c6692	0.15273502
225	0x3e5e1ccb	0.21690671
226	0x3e750d1e	0.23930785
227	0xbecf301a	-0.40466386
228	0xbeb63c4a	-0.35592872
229	0xbf04c261	-0.518591
230	0x3d0d1794	0.034446314
231	0x3e0893c9	0.13337626
232	0xbd563459	-0.052296016
233	0x3abce279	0.0014410756
234	0x3d3330af	0.0437476
235	0xbf037f9a	-0.5136658
236	0x3c885f39	0.016646968
237	0x3e6cb841	0.23117162
238	0xbdd44c56	-0.103661224
239	0x3d5f5bf5	0.054531056
240	0x3eaea487	0.341099
241	0xbef81b62	-0.4845839
242	0x3e6f1054	0.23346072
243	0xbd89b85d	-0.06724618
244	0xbe9f5ec5	-0.3112699
245	0x3e6421e8	0.22278559
246	0x3e2f9b5b	0.17149107
247	0x3e8937f1	0.26800492
248	0xbcf4c5f2	-0.029879544
249	0xbedb5dbb	-0.42844948
250	0x3cf65349	0.03006901
251	0xbe9539ad	-0.29145566
252	0xbeae6b80	-0.3406639
253	0x3e15a0cc	0.1461212
254	0xbe9baa43	-0.30403337
255	0xbbbd58dd	-0.0057784156

sequential_1/dense_5/BiasAdd/ReadVariableOp f4 [11]
0	0xbe51bb1c	-0.20481533
1	0x3d25bb6a	0.040461935
2	0x3a58fa6c	0.0008277062
3	0xbcd802b1	-0.02636847
4	0x3da2770b	0.07932862
5	0x3c4ae3ef	0.012383445
6	0x3d93b17e	0.07211588
7	0xbdeaa2b3	-0.11456814
8	0xbc24b823	-0.010053667
9	0xbcf6e1f2	-0.030137036
10	0x3e0c4b36	0.13700566

sequential_1/dense_4/BiasAdd/ReadVariableOp f4 [32]
0	0xbd72bfe6	-0.05926504
1	0xbc3a3047	-0.011364049
2	0xbda2aa6d	-0.079426624
3	0x3d9c6304	0.07636073
4	0xbdc622c2	-0.09674598
5	0x3e5d1366	0.21589431
6	0x3dd50ffa	0.10403438
7	0xbdad82ac	-0.08472189
8	0xbac9498b	-0.0015357
9	0x3cc16ee4	0.023612447
10	0x3b02ad2d	0.0019939647
11	0x3e0e3b2c	0.1388976
12	0xbd9877a4	-0.07444695
13	0x3da665ff	0.08124923
14	0xbc812855	-0.015766302
15	0x3c9404ce	0.018068697
16	0xbdb8984c	-0.09013423
17	0xbd8fb5c0	-0.07017088
18	0xbe0322d0	-0.12806249
19	0x3e48b84b	0.19601552
20	0xbe29b0d1	-0.16571356
21	0xbbace398	-0.0052761547
22	0xbd9acd33	-0.0755867
23	0x3cc408ea	0.023930032
24	0x3e463565	0.19356306
25	0x3c9378df	0.018001972
26	0x3d521009	0.051284824
27	0x3d980061	0.07421947
28	0xbd151d67	-0.036404993
29	0x3ccfdfcf	0.025375275
30	0xbd4136c2	-0.04717136
31	0x3df133a1	0.117774256

sequential_1/dense_3/BiasAdd/ReadVariableOp f4 [64]
0	0xbde18e67	-0.11013489
1	0xbca57a8e	-0.02020004
2	0x3d08a7e0	0.033363223
3	0x3d44e36b	0.048068445
4	0x3dc1b6c5	0.09458689
5	0xbd2652eb	-0.04060642
6	0x3ce7ebba	0.028310645
7	0x3d403449	0.046924863
8	0xbd918a3b	-0.071064435
9	0xbd1d52c2	-0.038409002
10	0xbd475b1d	-0.048670877
11	0xbd9b7fbf	-0.07592725
12	0x3cd137b5	0.025539258
13	0xbd0c12f9	-0.03419778
14	0x3e0bdcad	0.136584
15	0x3d87518c	0.06607351
16	0xbd3f2b76	-0.046672307
17	0xbd7a4315	-0.06109913
18	0x3d6dd703	0.05806638
19	0xbd780a10	-0.06055647
20	0x3d3e5db0	0.046476066
21	0xbdd4c459	-0.10389013
22	0x3d4b849a	0.049687006
23	0x3e046123	0.1292768
24	0x3dee6113	0.11639609
25	0xbd739a78	-0.059473485
26	0x3d461a63	0.048365008
27	0x3dba9d28	0.091120064
28	0x3c4b30d6	0.01240178
29	0x3c898069	0.016784864
30	0x3d0efc7d	0.03490876
31	0x3de65560	0.11246753
32	0xbc9e8ab3	-0.019353246
33	0xbd851026	-0.06497221
34	0x3e13399c	0.14377445
35	0x3e37e9bb	0.17960255
36	0xbc7073f5	-0.014676084
37	0xbdeb4f21	-0.11489702
38	0x3e01cb54	0.1267522
39	0x3dff8500	0.124765396
40	0x3e135a42	0.143899
41	0x3e3e8c01	0.18608095
42	0xbd602914	-0.054726675
43	0x3ec1a95c	0.37824523
44	0xbd402082	-0.046906002
45	0xbd9ca138	-0.076479375
46	0x3e0d4ef6	0.13799652
47	0x3df0d6ae	0.11759697
48	0xbdc3b976	-0.09556858
49	0xbd9d1bf6	-0.07671349
50	0xbe1c5a0e	-0.15268728
51	0xbdcba131	-0.09942854
52	0xbba7f20a	-0.005125289
53	0x3b59b23e	0.0033217813
54	0xbc71bb3c	-0.014754113
55	0xbdb9eb19	-0.090780444
56	0x3c3cf06c	0.01153193
57	0xbdad1102	-0.084505096
58	0x3dc1862c	0.094494194
59	0x3be51c2a	0.006991883
60	0xbcc15866	-0.023601722
61	0xbcdb0602	-0.026736263
62	0xbe0b0984	-0.13577849
63	0xbdd714e6	-0.10502033

sequential_1/dense_3/MatMul i1 [64, 64] scale=0.0044770213 zero_point=0
0	0x1c	0.1253566
1	0xfb	-0.022385105
2	0x13	0.085063405
3	0xd4	-0.19698894
4	0xfc	-0.017908085
5	0xd9	-0.17460383
6	0xf6	-0.04477021
7	0x14	0.08954042
8	0xe0	-0.14326468
9	0xe0	-0.14326468
10	0x1d	0.12983362
11	0x17	0.10297149
12	0x16	0.09849447
13	0x02	0.008954043
14	0xd4	-0.19698894
15	0xef	-0.076109365
16	0xcc	-0.2328051
17	0x25	0.16564979
18	0xe8	-0.10744851
19	0xda	-0.17012681
20	0xef	-0.076109365
21	0x1a	0.11640255
22	0xff	-0.0044770213
23	0xd0	-0.21489702
24	0xef	-0.076109365
25	0xcc	-0.2328051
26	0xf5	-0.049247235
27	0x1f	0.13878766
28	0xe3	-0.12983362
29	0xce	-0.22385107
30	0x08	0.03581617
31	0xfc	-0.017908085
32	0xca	-0.24175915
33	0xd8	-0.17908084
34	0x37	0.24623618
35	0xe5	-0.120879576
36	0xe2	-0.13431063
37	0xaa	-0.38502383
38	0x00	0.0
39	0x21	0.1477417
40	0xc9	-0.24623618
41	0xc3	-0.2730983
42	0xe5	-0.120879576
43	0x0e	0.0626783
44	0x29	0.18355787
45	0x20	0.14326468
46	0xbb	-0.30891448
47	0xe9	-0.10297149
48	0x10	0.07163234
49	0xd5	-0.19251192
50	0xe6	-0.11640255
51	0xf4	-0.053724255
52	0x1b	0.120879576
53	0xa1	-0.42531702
54	0x1a	0.11640255
55	0x25	0.16564979
56	0xf4	-0.053724255
57	0x2e	0.20594297
58	0x0a	0.04477021
59	0xfc	-0.017908085
60	0x24	0.16117276
61	0x0d	0.058201276
62	0x1c	0.1253566
63	0xfd	-0.013431064
64	0xe2	-0.13431063
65	0xf7	-0.04029319
66	0x0f	0.06715532
67	0x07	0.03133915
68	0xd6	-0.18803489
69	0xdd	-0.15669574
70	0x23	0.15669574
71	0xf0	-0.07163234
72	0x37	0.24623618
73	0x18	0.10744851
74	0x2e	0.20594297
75	0xa9	-0.38950086
76	0x1f	0.13878766
77	0xc1	-0.28205234
78	0x29	0.18355787
79	0x0f	0.06715532
80	0xf9	-0.03133915
81	0x27	0.17460383
82	0xfd	-0.013431064
83	0x2b	0.19251192
84	0x2d	0.20146596
85	0x15	0.094017446
86	0xf9	-0.03133915
87	0xf7	-0.04029319
88	0xfa	-0.026862128
89	0x16	0.09849447
90	0x04	0.017908085
91	0x15	0.094017446
92	0xda	-0.17012681
93	0xba	-0.31339148
94	0x3c	0.26862127
95	0x22	0.15221873
96	0xfb	-0.022385105
97	0x28	0.17908084
98	0xf6	-0.04477021
99	0xfd	-0.013431064
100	0x25	0.16564979
101	0xf7	-0.04029319
102	0xd5	-0.19251192
103	0xda	-0.17012681
104	0x1e	0.13431063
105	0x01	0.0044770213
106	0xfd	-0.013431064
107	0xf7	-0.04029319
108	0x05	0.022385105
109	0x01	0.0044770213
110	0xcc	-0.2328051
111	0xe8	-0.10744851
112	0x1e	0.13431063
113	0xf0	-0.07163234
114	0x06	0.026862128
115	0xef	-0.076109365
116	0xf9	-0.03133915
117	0xba	-0.31339148
118	0xdc	-0.16117276
119	0x0b	0.049247235
120	0xaf	-0.3626387
121	0xeb	-0.094017446
122	0x1b	0.120879576
123	0xf0	-0.07163234
124	0x0d	0.058201276
125	0xdd	-0.15669574
126	0x1a	0.11640255
127	0xaf	-0.3626387
128	0x1c	0.1253566
129	0xe1	-0.13878766
130	0xfc	-0.017908085
131	0x14	0.08954042
132	0xee	-0.08058638
133	0x32	0.22385107
134	0xd3	-0.20146596
135	0x14	0.08954042
136	0xc9	-0.24623618
137	0x13	0.085063405
138	0xd3	-0.20146596
139	0xce	-0.22385107
140	0x40	0.28652936
141	0xe5	-0.120879576
142	0xda	-0.17012681
143	0xe4	-0.1253566
144	0xe0	-0.14326468
145	0x03	0.013431064
146	0x37	0.24623618
147	0xdc	-0.16117276
148	0xd5	-0.19251192
149	0x27	0.17460383
150	0xe6	-0.11640255
151	0x06	0.026862128
152	0xf1	-0.06715532
153	0xf1	-0.06715532
154	0x2a	0.18803489
155	0x9a	-0.45665616
156	0xdc	-0.16117276
157	0xea	-0.09849447
158	0xd1	-0.21042
159	0x1c	0.1253566
160	0x14	0.08954042
161	0x20	0.14326468
162	0x23	0.15669574
163	0xf2	-0.0626783
164	0xe4	-0.1253566
165	0x26	0.17012681
166	0xf2	-0.0626783
167	0x12	0.08058638
168	0xff	-0.0044770213
169	0x01	0.0044770213
170	0xd8	-0.17908084
171	0xd3	-0.20146596
172	0xcd	-0.22832808
173	0x26	0.17012681
174	0x1a	0.11640255
175	0xd2	-0.20594297
176	0x24	0.16117276
177	0x1e	0.13431063
178	0x03	0.013431064
179	0xe4	-0.1253566
180	0x0b	0.049247235
181	0xef	-0.076109365
182	0xd9	-0.17460383
183	0xef	-0.076109365
184	0xfa	-0.026862128
185	0xe3	-0.12983362
186	0x31	0.21937405
187	0x01	0.0044770213
188	0xea	-0.09849447
189	0x0b	0.049247235
190	0xf0	-0.07163234
191	0xfc	-0.017908085
192	0x00	0.0
193	0x17	0.10297149
194	0xfe	-0.008954043
195	0xc6	-0.25966725
196	0x02	0.008954043
197	0x01	0.0044770213
198	0xe5	-0.120879576
199	0x26	0.17012681
200	0x0f	0.06715532
201	0xf8	-0.03581617
202	0x36	0.24175915
203	0xa3	-0.41636297
204	0x36	0.24175915
205	0x0d	0.058201276
206	0xe0	-0.14326468
207	0xde	-0.15221873
208	0x13	0.085063405
209	0xea	-0.09849447
210	0xce	-0.22385107
211	0xfe	-0.008954043
212	0xef	-0.076109365
213	0x35	0.23728213
214	0x0d	0.058201276
215	0xd4	-0.19698894
216	0x15	0.094017446
217	0x21	0.1477417
218	0x1c	0.1253566
219	0xbb	-0.30891448
220	0x16	0.09849447
221	0xda	-0.17012681
222	0x0b	0.049247235
223	0x25	0.16564979
224	0xf4	-0.053724255
225	0x38	0.2507132
226	0xf2	-0.0626783
227	0x1f	0.13878766
228	0xe7	-0.111925535
229	0x2c	0.19698894
230	0xc3	-0.2730983
231	0xf3	-0.058201276
232	0xfd	-0.013431064
233	0xfc	-0.017908085
234	0x02	0.008954043
235	0xda	-0.17012681
236	0xe7	-0.111925535
237	0xfc	-0.017908085
238	0xfc	-0.017908085
239	0xff	-0.0044770213
240	0x12	0.08058638
241	0xe4	-0.1253566
242	0xcb	-0.23728213
243	0xe6	-0.11640255
244	0xdd	-0.15669574
245	0x01	0.0044770213
246	0xeb	-0.094017446
247	0x0f	0.06715532
248	0xf8	-0.03581617
249	0x22	0.15221873
250	0xe3	-0.12983362
251	0xdc	-0.16117276
252	0xed	-0.085063405
253	0x16	0.09849447
254	0xcc	-0.2328051
255	0x0b	0.049247235

sequential_1/dense_4/MatMul i1 [32, 64] scale=0.004060275 zero_point=0
0	0x04	0.0162411
1	0x0a	0.04060275
2	0xf8	-0.0324822
3	0x01	0.004060275
4	0x16	0.08932605
5	0x14	0.0812055
6	0x34	0.2111343
7	0x37	0.22331512
8	0x2d	0.18271238
9	0x2f	0.19083293
10	0xbd	-0.27203843
11	0x2a	0.17053154
12	0xf3	-0.052783575
13	0x38	0.22737539
14	0x01	0.004060275
15	0xe0	-0.1299288
16	0x08	0.0324822
17	0x26	0.15429045
18	0x3d	0.24767677
19	0x07	0.028421924
20	0xfa	-0.02436165
21	0xa6	-0.36542475
22	0x16	0.08932605
23	0xd8	-0.162411
24	0xf3	-0.052783575
25	0x0e	0.056843847
26	0x01	0.004060275
27	0xcd	-0.20707402
28	0x1a	0.10556715
29	0xe2	-0.121808246
30	0x3b	0.23955622
31	0xe3	-0.11774797
32	0xe3	-0.11774797
33	0xbf	-0.26391786
34	0x26	0.15429045
35	0xeb	-0.08526577
36	0x21	0.13398907
37	0xf7	-0.036542475
38	0xe8	-0.0974466
39	0xd4	-0.1786521
40	0x46	0.28421924
41	0xf3	-0.052783575
42	0xcd	-0.20707402
43	0x03	0.012180825
44	0x49	0.29640007
45	0x2c	0.1786521
46	0xf5	-0.044663023
47	0xea	-0.08932605
48	0x23	0.14210962
49	0x1d	0.11774797
50	0x0c	0.0487233
51	0x2f	0.19083293
52	0xd8	-0.162411
53	0x08	0.0324822
54	0xd2	-0.18677264
55	0xe3	-0.11774797
56	0x16	0.08932605
57	0xf6	-0.04060275
58	0xf0	-0.0649644
59	0xc1	-0.25579733
60	0xec	-0.0812055
61	0xd9	-0.15835072
62	0xdd	-0.14210962
63	0xe6	-0.10556715
64	0xc9	-0.22331512
65	0x26	0.15429045
66	0xcc	-0.2111343
67	0xf3	-0.052783575
68	0xf5	-0.044663023
69	0x00	0.0
70	0x16	0.08932605
71	0x06	0.02436165
72	0x2a	0.17053154
73	0x38	0.22737539
74	0xc6	-0.23549594
75	0xed	-0.07714523
76	0x19	0.101506874
77	0x28	0.162411
78	0xfc	-0.0162411
79	0xba	-0.28421924
80	0xfa	-0.02436165
81	0xf0	-0.0649644
82	0x21	0.13398907
83	0xfe	-0.00812055
84	0x1c	0.113687694
85	0x49	0.29640007
86	0xe4	-0.113687694
87	0xb8	-0.2923398
88	0x0c	0.0487233
89	0x08	0.0324822
90	0x44	0.2760987
91	0x0e	0.056843847
92	0x2b	0.17459182
93	0xcc	-0.2111343
94	0x1e	0.121808246
95	0x2b	0.17459182
96	0xd6	-0.17053154
97	0x32	0.20301375
98	0x0b	0.044663023
99	0xc6	-0.23549594
100	0x43	0.27203843
101	0x1e	0.121808246
102	0x20	0.1299288
103	0xbe	-0.26797813
104	0xd9	-0.15835072
105	0x0d	0.052783575
106	0x09	0.036542475
107	0x11	0.069024675
108	0x06	0.02436165
109	0xf4	-0.0487233
110	0xda	-0.15429045
111	0x18	0.0974466
112	0xee	-0.07308495
113	0xd5	-0.17459182
114	0x30	0.1948932
115	0x2f	0.19083293
116	0xea	-0.08932605
117	0x27	0.15835072
118	0x2f	0.19083293
119	0xf0	-0.0649644
120	0x02	0.00812055
121	0x3b	0.23955622
122	0xce	-0.20301375
123	0xdb	-0.15023017
124	0x1e	0.121808246
125	0x28	0.162411
126	0xf4	-0.0487233
127	0x1b	0.109627426
128	0x05	0.020301376
129	0xef	-0.069024675
130	0x09	0.036542475
131	0xfd	-0.012180825
132	0x36	0.21925485
133	0xe3	-0.11774797
134	0x26	0.15429045
135	0x00	0.0
136	0xcb	-0.21519457
137	0x33	0.20707402
138	0x01	0.004060275
139	0xe5	-0.109627426
140	0x18	0.0974466
141	0xf9	-0.028421924
142	0x2f	0.19083293
143	0x3a	0.23549594
144	0x11	0.069024675
145	0xf8	-0.0324822
146	0x2b	0.17459182
147	0x10	0.0649644
148	0xff	-0.004060275
149	0x33	0.20707402
150	0x0f	0.060904123
151	0x0a	0.04060275
152	0xdc	-0.1461699
153	0x0c	0.0487233
154	0xcd	-0.20707402
155	0x1f	0.12586853
156	0xdf	-0.13398907
157	0x38	0.22737539
158	0x39	0.23143567
159	0xff	-0.004060275
160	0xe3	-0.11774797
161	0x26	0.15429045
162	0xef	-0.069024675
163	0xd6	-0.17053154
164	0x1a	0.10556715
165	0x47	0.28827953
166	0xe5	-0.109627426
167	0xe0	-0.1299288
168	0x24	0.1461699
169	0x17	0.09338632
170	0xd5	-0.17459182
171	0x28	0.162411
172	0xc8	-0.22737539
173	0x1f	0.12586853
174	0xe9	-0.09338632
175	0xe7	-0.101506874
176	0x2a	0.17053154
177	0x46	0.28421924
178	0xf7	-0.036542475
179	0x25	0.15023017
180	0x15	0.08526577
181	0x10	0.0649644
182	0x38	0.22737539
183	0xc6	-0.23549594
184	0xd5	-0.17459182
185	0xff	-0.004060275
186	0x44	0.2760987
187	0xd9	-0.15835072
188	0xdb	-0.15023017
189	0x36	0.21925485
190	0xf1	-0.060904123
191	0x02	0.00812055
192	0x23	0.14210962
193	0x0e	0.056843847
194	0x03	0.012180825
195	0xb8	-0.2923398
196	0xf7	-0.036542475
197	0xdc	-0.1461699
198	0x44	0.2760987
199	0xf3	-0.052783575
200	0xfe	-0.00812055
201	0x18	0.0974466
202	0xef	-0.069024675
203	0x2f	0.19083293
204	0x0f	0.060904123
205	0x08	0.0324822
206	0xe7	-0.101506874
207	0xe4	-0.113687694
208	0x24	0.1461699
209	0xe9	-0.09338632
210	0xdb	-0.15023017
211	0x13	0.07714523
212	0xe1	-0.12586853
213	0x3b	0.23955622
214	0x1e	0.121808246
215	0x42	0.26797813
216	0xdb	-0.15023017
217	0x0d	0.052783575
218	0xda	-0.15429045
219	0x16	0.08932605
220	0xef	-0.069024675
221	0xc3	-0.24767677
222	0x0f	0.060904123
223	0x41	0.26391786
224	0xda	-0.15429045
225	0x42	0.26797813
226	0x26	0.15429045
227	0x2a	0.17053154
228	0x35	0.21519457
229	0x0f	0.060904123
230	0xdc	-0.1461699
231	0x1a	0.10556715
232	0x33	0.20707402
233	0x3e	0.25173706
234	0xdc	-0.1461699
235	0x11	0.069024675
236	0x53	0.3370028
237	0x19	0.101506874
238	0x07	0.028421924
239	0xe7	-0.101506874
240	0x10	0.0649644
241	0x10	0.0649644
242	0xbc	-0.2760987
243	0xe6	-0.10556715
244	0x04	0.0162411
245	0xd9	-0.15835072
246	0xd5	-0.17459182
247	0xe9	-0.09338632
248	0xe8	-0.0974466
249	0x24	0.1461699
250	0x1c	0.113687694
251	0xc5	-0.23955622
252	0xd9	-0.15835072
253	0x25	0.15023017
254	0x08	0.0324822
255	0x2b	0.17459182

sequential_1/lstm_3/while/lstm_cell_3/BiasAdd/ReadVariableOp f4 [256]
0	0xbb6b4903	-0.0035901673
1	0xbbcd0a13	-0.0062573045
2	0xbd0b8362	-0.034060843
3	0xbbede9de	-0.007260545
4	0xbcce340a	-0.025171299
5	0xbb997eed	-0.00468432
6	0xbbb32b51	-0.00546781
7	0xbc45c3a1	-0.012070567
8	0xbc015edd	-0.007896152
9	0xbd357649	-0.04430226
10	0xbc1da36b	-0.009621481
11	0xbcfd412c	-0.030914865
12	0xbc72fe0d	-0.014831078
13	0xbc9fac8c	-0.019491456
14	0xbbb6b77e	-0.005576073
15	0xbbb5e66d	-0.0055511505
16	0xbbdfa81e	-0.006825461
17	0xbb1daa54	-0.0024057822
18	0xbcdbb20a	-0.026818294
19	0xbba4691f	-0.005017414
20	0xbc076666	-0.00826416
21	0x3cbd44a8	0.023104027
22	0xbb6c4e9f	-0.0036057604
23	0xbbf96294	-0.0076106284
24	0xbcb68182	-0.022278551
25	0x3c08327e	0.0083128195
26	0xbc919e95	-0.017775813
27	0xbbdbb32f	-0.00670471
28	0xbbfe28fe	-0.0077563515
29	0x3b5e703b	0.0033941406
30	0xbbf2c1ff	-0.00740838
31	0xbbbe532f	-0.005808256
32	0xbbe1a71b	-0.0068863756
33	0x3d44d2ae	0.048052482
34	0x3d334e23	0.04377569
35	0xbd0c2673	-0.034216356
36	0xbbaf5b11	-0.005351432
37	0xbb651862	-0.003495716
38	0xbbb8356a	-0.005621602
39	0x3d5c0cb5	0.053723056
40	0xbb4257bc	-0.0029654345
41	0xbbe2ed69	-0.006925274
42	0x3d1d90ef	0.038468298
43	0xbbc876b6	-0.006117667
44	0x3c629df9	0.013831609
45	0x3a9b8911	0.001186641
46	0xbc90b4d7	-0.017664356
47	0xbbac1aaf	-0.0052522044
48	0xbba11dc6	-0.0049168793
49	0x3d0a6871	0.03379101
50	0xbd00d072	-0.03144879
51	0xbb68b365	-0.0035507318
52	0xbc0a754b	-0.008450816
53	0xbc9cd461	-0.019144239
54	0x3d001cff	0.031277653
55	0xbbe9e99f	-0.0071384455
56	0xba8c445b	-0.0010701524
57	0xbbc61f63	-0.006046222
58	0xbc3d3b89	-0.011549839
59	0xbbdbe853	-0.006711045
60	0xbcea1078	-0.028572306
61	0xbc5a57a1	-0.013326556
62	0xbbd5eda7	-0.0065285745
63	0xbcea9f8b	-0.02864053
64	0x3f795a8c	0.9740379
65	0x3f7f03d5	0.9961522
66	0x3f77841f	0.96685976
67	0x3f7e75da	0.9939858
68	0x3f7f6b37	0.9977297
69	0x3f8357d2	1.0261176
70	0x3f7e3199	0.9929443
71	0x3f7e1cf1	0.9926291
72	0x3f7debd3	0.99187964
73	0x3f75622c	0.95852923
74	0x3f7dece9	0.9918962
75	0x3f76b71a	0.9637314
76	0x3f7aa47a	0.9790722
77	0x3f858954	1.0432534
78	0x3f7e9246	0.99441946
79	0x3f7e93fa	0.99444544
80	0x3f7e46fb	0.9932706
81	0x3f7cc840	0.9874306
82	0x3f789e24	0.97116303
83	0x3f7f2cb7	0.99677604
84	0x3f7e48e0	0.9932995
85	0x3f791e91	0.97312266
86	0x3f82e269	1.0225345
87	0x3f7e3162	0.992941
88	0x3f866953	1.0500892
89	0x3f77796a	0.9666964
90	0x3f7d74fd	0.99006635
91	0x3f7e1775	0.9925454
92	0x3f7df9d3	0.99209327
93	0x3f808614	1.0040917
94	0x3f7eb491	0.9949427
95	0x3f7e7c57	0.9940848
96	0x3f7ee26f	0.9956426
97	0x3f7979de	0.9745158
98	0x3f78acb0	0.971385
99	0x3f7f0b80	0.9962692
100	0x3f7e7705	0.9940036
101	0x3f7f0bde	0.9962748
102	0x3f7e96c6	0.9944881
103	0x3f78d5fe	0.97201526
104	0x3f7f28d3	0.9967167
105	0x3f7ec6e4	0.99522233
106	0x3f79dc1f	0.97601503
107	0x3f7e65fd	0.9937437
108	0x3f7b86a8	0.98252344
109	0x3f82c3e6	1.0216033
110	0x3f7c1283	0.98465747
111	0x3f7e9c2a	0.9945704
112	0x3f7eb907	0.9950108
113	0x3f79eb78	0.9762492
114	0x3f77f2a3	0.9685461
115	0x3f7f140d	0.9963997
116	0x3f7e79ce	0.9940461
117	0x3f78677d	0.9703291
118	0x3f7deba9	0.99187714
119	0x3f7f22b2	0.99662316
120	0x3f7ff8c5	0.9998897
121	0x3f7e502b	0.99341077
122	0x3f7e79ea	0.99404776
123	0x3f7e4c75	0.99335414
124	0x3f790bc9	0.9728361
125	0x3f7d262a	0.9888636
126	0x3f7e4ca7	0.9933571
127	0x3f782404	0.96929955
128	0xbce3b4ef	-0.027796237
129	0xbb49506a	-0.0030718097
130	0xbd13f3f4	-0.036121324
131	0xbbd04676	-0.006356056
132	0xbcd2c563	-0.025728887
133	0xbd0b0c61	-0.033947352
134	0xbbdf26fb	-0.0068100668
135	0xbc02a67b	-0.007974262
136	0xbbfad347	-0.0076545808
137	0xbd5cd0d2	-0.053910084
138	0xbbbdc459	-0.0057912287
139	0xbd060d5c	-0.032727584
140	0x3b266450	0.002538938
141	0x3cfe34d3	0.031031048
142	0xbbc50d99	-0.006013584
143	0xbbb6136a	-0.0055565136
144	0xbbc10e4d	-0.0058915974
145	0xbad63a69	-0.0016344312
146	0xbcc45334	-0.023965456
147	0xbb5565c7	-0.0032561885
148	0xbc0c86c2	-0.008577051
149	0x3b29b8e1	0.002589755
150	0x3cf1651d	0.02946716
151	0xbbf866e5	-0.0075806254
152	0xbce806d8	-0.028323576
153	0x3a948595	0.0011331314
154	0xbb6ffa76	-0.0036617792
155	0xbc000d34	-0.007815648
156	0xbc017b87	-0.007902986
157	0xbcb055e3	-0.021525329
158	0xbbd2fdb1	-0.006438934
159	0xbb9a39d6	-0.0047066016
160	0xbba2ff48	-0.0049742796
161	0xbc48f74e	-0.012265993
162	0xbce6f838	-0.028194532
163	0xbd037e95	-0.03210314
164	0xbbcf264d	-0.0063217045
165	0xbb56d0f6	-0.003277836
166	0xbbb8c1d4	-0.0056383405
167	0xbc3720bd	-0.011177239
168	0xbb571be8	-0.003282303
169	0xbbbaadab	-0.0056969724
170	0xbc687e51	-0.014190272
171	0xbbc71d51	-0.006076493
172	0x386285fa	5.4007374e-05
173	0xbcb6d476	-0.022318106
174	0xbc6b7340	-0.014370739
175	0xbb6552cb	-0.0034991975
176	0xbbafd437	-0.005365874
177	0xbca63c62	-0.020292465
178	0xbc7f61f2	-0.015587317
179	0xbb6b794b	-0.003593045
180	0xbc0d487b	-0.008623238
181	0xbc56df91	-0.013114826
182	0xbcc777b7	-0.024349077
183	0xbba49519	-0.0050226566
184	0x3aa2f7d4	0.0012433478
185	0xbb773972	-0.003772345
186	0xbcc68708	-0.02423431
187	0xbbdb1f10	-0.0066870525
188	0xbcf2620e	-0.029587772
189	0xbc090043	-0.008361879
190	0xbbcf3e84	-0.006324591
191	0xbcd837b2	-0.026393745
192	0xbc797f86	-0.015228158
193	0xbceb8253	-0.028748667
194	0xbd0d0fe0	-0.034438968
195	0xbbe4b57a	-0.0069796415
196	0xbcd98d68	-0.026556686
197	0x3ca299f0	0.019848794
198	0xbbbe39ef	-0.005805246
199	0xbc146c31	-0.009058998
200	0xbc056efc	-0.0081441365
201	0xbd49f2fb	-0.04930399
202	0xbbefab83	-0.007314147
203	0xbbd82f6a	-0.006597449
204	0x3aa4f96e	0.0012586543
205	0x3d3f54b0	0.046711624
206	0xbbbca439	-0.0057568816
207	0xbbb5e2d4	-0.0055507217
208	0xbaecfc33	-0.0018080532
209	0xbaa1b32e	-0.0012336725
210	0xbcce41f6	-0.025177937
211	0xbb1245a7	-0.0022319348
212	0xbc047c85	-0.008086328
213	0x3c7352b3	0.01485126
214	0x3cc7712b	0.024345955
215	0xbbf9517d	-0.007608591
216	0x3d0c6d21	0.03428376
217	0xbcfdcaaa	-0.030980427
218	0xbc4eeaf8	-0.012629263
219	0xbbe2824c	-0.0069125053
220	0xbbd7cfd4	-0.0065860543
221	0xbc251c53	-0.010077554
222	0xbb8a9e49	-0.004230295
223	0xbbbde6ae	-0.0057953214
224	0xbb9afa99	-0.0047295806
225	0x3d41801f	0.047241326
226	0xbcbbdd9b	-0.022932818
227	0xbd040f27	-0.032241013
228	0xba88c761	-0.0010435396
229	0xbb6cedfc	-0.0036152592
230	0xbbb76222	-0.005596415
231	0x3d2ea1c5	0.042634744
232	0xbb3e7a0b	-0.0029064442
233	0xbbe3803b	-0.0069427765
234	0x3bf54b60	0.007485792
235	0xbbc8c883	-0.0061274185
236	0x3b81b7b5	0.003958667
237	0xbc5a9d78	-0.013343208
238	0xbc54fb39	-0.012999349
239	0xbbd28909	-0.0064250273
240	0xbba1116b	-0.0049154065
241	0xbce712fd	-0.028207297
242	0xbd039f10	-0.032134116
243	0xbb682bd9	-0.0035426526
244	0xbc1aebb6	-0.009455612
245	0x3c24e266	0.010063743
246	0x3d129f52	0.03579647
247	0xbc0ff4fb	-0.008786435
248	0xba9d9a95	-0.0012024218
249	0xbbcae6ee	-0.0061920797
250	0xbc4a5fea	-0.012351969
251	0xbbd9fc2d	-0.006652376
252	0x3c9c7d5c	0.019102745
253	0x3ad2c6a1	0.0016080925
254	0xbbd1a823	-0.0063982173
255	0x3ad3f3ba	0.0016170659

sequential_1/lstm_3/while/lstm_cell_3/MatMul_11 i1 [256, 64] scale=0.0023573835 zero_point=0
0	0xd4	-0.103724875
1	0xf0	-0.037718136
2	0x14	0.04714767
3	0xf6	-0.023573834
4	0xd2	-0.10843964
5	0x2b	0.10136749
6	0xf0	-0.037718136
7	0x14	0.04714767
8	0x4b	0.17680377
9	0xef	-0.04007552
10	0x19	0.058934588
11	0x15	0.049505055
12	0xed	-0.044790287
13	0xd2	-0.10843964
14	0xe4	-0.066006735
15	0xf6	-0.023573834
16	0x39	0.13437086
17	0xee	-0.042432904
18	0xe3	-0.06836412
19	0xfc	-0.009429534
20	0x1f	0.073078886
21	0xf0	-0.037718136
22	0x0d	0.030645985
23	0xff	-0.0023573835
24	0x0b	0.025931219
25	0xf9	-0.016501684
26	0x0f	0.035360754
27	0xfa	-0.014144301
28	0xe5	-0.06364936
29	0x26	0.08958057
30	0x08	0.018859068
31	0x19	0.058934588
32	0x04	0.009429534
33	0x03	0.0070721507
34	0xf6	-0.023573834
35	0xf9	-0.016501684
36	0x08	0.018859068
37	0x0c	0.028288603
38	0xd1	-0.110797025
39	0xf7	-0.021216452
40	0xd5	-0.10136749
41	0xd5	-0.10136749
42	0xd2	-0.10843964
43	0xeb	-0.049505055
44	0x2f	0.110797025
45	0xfe	-0.004714767
46	0xd9	-0.09193796
47	0x07	0.016501684
48	0x0f	0.035360754
49	0x17	0.05421982
50	0x18	0.056577206
51	0x0c	0.028288603
52	0xf3	-0.030645985
53	0xe4	-0.066006735
54	0x07	0.016501684
55	0xf7	-0.021216452
56	0xcd	-0.120226555
57	0xdb	-0.08722319
58	0x2f	0.110797025
59	0xf1	-0.035360754
60	0xbd	-0.1579447
61	0xfe	-0.004714767
62	0x0a	0.023573834
63	0xf4	-0.028288603
64	0xf0	-0.037718136
65	0x01	0.0023573835
66	0x11	0.04007552
67	0xf9	-0.016501684
68	0xf9	-0.016501684
69	0x08	0.018859068
70	0xb7	-0.172089
71	0x1a	0.06129197
72	0x02	0.004714767
73	0xee	-0.042432904
74	0xfd	-0.0070721507
75	0x08	0.018859068
76	0xed	-0.044790287
77	0x0c	0.028288603
78	0x0a	0.023573834
79	0xb7	-0.172089
80	0xdc	-0.08486581
81	0xf5	-0.025931219
82	0x03	0.0070721507
83	0xce	-0.117869176
84	0x2c	0.103724875
85	0xf9	-0.016501684
86	0x19	0.058934588
87	0x2c	0.103724875
88	0x00	0.0
89	0xfa	-0.014144301
90	0x02	0.004714767
91	0xf1	-0.035360754
92	0x27	0.09193796
93	0xef	-0.04007552
94	0x0c	0.028288603
95	0xe7	-0.058934588
96	0x05	0.011786917
97	0x15	0.049505055
98	0xec	-0.04714767
99	0xe2	-0.07072151
100	0xe6	-0.06129197
101	0xed	-0.044790287
102	0xec	-0.04714767
103	0xe0	-0.07543627
104	0x15	0.049505055
105	0xdd	-0.08250842
106	0xd2	-0.10843964
107	0x0f	0.035360754
108	0x11	0.04007552
109	0xed	-0.044790287
110	0xdd	-0.08250842
111	0x0c	0.028288603
112	0x05	0.011786917
113	0x38	0.13201347
114	0xf2	-0.033003367
115	0x11	0.04007552
116	0x05	0.011786917
117	0x07	0.016501684
118	0x0b	0.025931219
119	0x0e	0.033003367
120	0x21	0.07779366
121	0x2d	0.10608226
122	0x05	0.011786917
123	0x1c	0.066006735
124	0xdb	-0.08722319
125	0xec	-0.04714767
126	0x14	0.04714767
127	0xda	-0.08958057
128	0xea	-0.051862437
129	0xee	-0.042432904
130	0x0a	0.023573834
131	0x25	0.08722319
132	0xdc	-0.08486581
133	0x1e	0.07072151
134	0x0c	0.028288603
135	0xf5	-0.025931219
136	0x0b	0.025931219
137	0x0d	0.030645985
138	0x01	0.0023573835
139	0x10	0.037718136
140	0xf0	-0.037718136
141	0x00	0.0
142	0xfc	-0.009429534
143	0x0c	0.028288603
144	0x00	0.0
145	0x0d	0.030645985
146	0xe4	-0.066006735
147	0x00	0.0
148	0x20	0.07543627
149	0xe4	-0.066006735
150	0xe9	-0.05421982
151	0x19	0.058934588
152	0xd9	-0.09193796
153	0x04	0.009429534
154	0xde	-0.08015104
155	0xf5	-0.025931219
156	0x13	0.044790287
157	0xe3	-0.06836412
158	0xc3	-0.1438004
159	0x04	0.009429534
160	0xcb	-0.12494133
161	0xf4	-0.028288603
162	0xe8	-0.056577206
163	0xee	-0.042432904
164	0x00	0.0
165	0xf4	-0.028288603
166	0xe9	-0.05421982
167	0xfa	-0.014144301
168	0xe6	-0.06129197
169	0xf9	-0.016501684
170	0xd4	-0.103724875
171	0x09	0.021216452
172	0xf4	-0.028288603
173	0xee	-0.042432904
174	0x14	0.04714767
175	0xf1	-0.035360754
176	0xf9	-0.016501684
177	0xff	-0.0023573835
178	0x03	0.0070721507
179	0x0b	0.025931219
180	0x2a	0.09901011
181	0xfe	-0.004714767
182	0x0f	0.035360754
183	0xf6	-0.023573834
184	0x04	0.009429534
185	0xf4	-0.028288603
186	0xe5	-0.06364936
187	0x03	0.0070721507
188	0x0a	0.023573834
189	0xd9	-0.09193796
190	0x16	0.051862437
191	0xdd	-0.08250842
192	0xeb	-0.049505055
193	0xf2	-0.033003367
194	0xf2	-0.033003367
195	0xdc	-0.08486581
196	0xe1	-0.073078886
197	0x02	0.004714767
198	0xed	-0.044790287
199	0x17	0.05421982
200	0xd9	-0.09193796
201	0x06	0.014144301
202	0x12	0.042432904
203	0x17	0.05421982
204	0x21	0.07779366
205	0x25	0.08722319
206	0xde	-0.08015104
207	0xde	-0.08015104
208	0x11	0.04007552
209	0xf3	-0.030645985
210	0xde	-0.08015104
211	0xdb	-0.08722319
212	0xe0	-0.07543627
213	0x0c	0.028288603
214	0x22	0.08015104
215	0xe7	-0.058934588
216	0xe3	-0.06836412
217	0x26	0.08958057
218	0xde	-0.08015104
219	0x08	0.018859068
220	0xec	-0.04714767
221	0x02	0.004714767
222	0xdb	-0.08722319
223	0x05	0.011786917
224	0x00	0.0
225	0x0a	0.023573834
226	0x34	0.12258394
227	0x05	0.011786917
228	0xf2	-0.033003367
229	0xdd	-0.08250842
230	0x0f	0.035360754
231	0x10	0.037718136
232	0xe4	-0.066006735
233	0x21	0.07779366
234	0x17	0.05421982
235	0xe3	-0.06836412
236	0x03	0.0070721507
237	0x1c	0.066006735
238	0x20	0.07543627
239	0xfe	-0.004714767
240	0x17	0.05421982
241	0xed	-0.044790287
242	0x25	0.08722319
243	0xd7	-0.096652724
244	0xe3	-0.06836412
245	0x17	0.05421982
246	0x31	0.11551179
247	0xe6	-0.06129197
248	0xe0	-0.07543627
249	0xf0	-0.037718136
250	0xed	-0.044790287
251	0x11	0.04007552
252	0x39	0.13437086
253	0xe3	-0.06836412
254	0xd1	-0.110797025
255	0xe5	-0.06364936

sequential_1/lstm_3/while/lstm_cell_3/MatMul i1 [256, 1086] scale=0.0018827344 zero_point=0
0	0x20	0.0602475
1	0x07	0.01317914
2	0xdf	-0.062130235
3	0x1c	0.05271656
4	0xff	-0.0018827344
5	0x0e	0.02635828
6	0xe2	-0.056482032
7	0x0d	0.024475547
8	0x1d	0.054599296
9	0x17	0.04330289
10	0xec	-0.037654687
11	0xde	-0.06401297
12	0xf2	-0.02635828
13	0xec	-0.037654687
14	0x14	0.037654687
15	0x13	0.03577195
16	0xf3	-0.024475547
17	0xdb	-0.06966117
18	0x15	0.039537422
19	0x19	0.047068357
20	0x11	0.032006484
21	0x00	0.0
22	0xe0	-0.0602475
23	0xe4	-0.05271656
24	0xe9	-0.04330289
25	0xfe	-0.0037654687
26	0xff	-0.0018827344
27	0x1e	0.056482032
28	0x08	0.015061875
29	0xfb	-0.009413672
30	0xe8	-0.045185626
31	0x1e	0.056482032
32	0x13	0.03577195
33	0x20	0.0602475
34	0x21	0.062130235
35	0xf0	-0.03012375
36	0x20	0.0602475
37	0xe8	-0.045185626
38	0x19	0.047068357
39	0x1d	0.054599296
40	0x08	0.015061875
41	0xed	-0.03577195
42	0x1a	0.048951093
43	0x0c	0.022592813
44	0x12	0.03388922
45	0xdd	-0.0658957
46	0x15	0.039537422
47	0xe2	-0.056482032
48	0x0c	0.022592813
49	0xe2	-0.056482032
50	0xe1	-0.058364764
51	0xec	-0.037654687
52	0xe6	-0.048951093
53	0x1c	0.05271656
54	0x10	0.03012375
55	0x1a	0.048951093
56	0xf1	-0.028241016
57	0xe4	-0.05271656
58	0x18	0.045185626
59	0xfc	-0.0075309374
60	0x20	0.0602475
61	0x14	0.037654687
62	0x11	0.032006484
63	0xfc	-0.0075309374
64	0x1c	0.05271656
65	0x01	0.0018827344
66	0xec	-0.037654687
67	0xe1	-0.058364764
68	0xe2	-0.056482032
69	0xe1	-0.058364764
70	0xfd	-0.005648203
71	0x19	0.047068357
72	0x0f	0.028241016
73	0x1d	0.054599296
74	0x1d	0.054599296
75	0xfa	-0.011296406
76	0xfe	-0.0037654687
77	0x16	0.041420154
78	0xf5	-0.020710077
79	0xe0	-0.0602475
80	0x1d	0.054599296
81	0xf7	-0.01694461
82	0xe4	-0.05271656
83	0xee	-0.03388922
84	0xe7	-0.047068357
85	0x06	0.011296406
86	0xdf	-0.062130235
87	0xe6	-0.048951093
88	0x20	0.0602475
89	0x0d	0.024475547
90	0xf5	-0.020710077
91	0xe7	-0.047068357
92	0xff	-0.0018827344
93	0xf5	-0.020710077
94	0xe1	-0.058364764
95	0xec	-0.037654687
96	0xf4	-0.022592813
97	0x0d	0.024475547
98	0xe7	-0.047068357
99	0x00	0.0
100	0x0a	0.018827343
101	0xea	-0.041420154
102	0x02	0.0037654687
103	0xe0	-0.0602475
104	0xfa	-0.011296406
105	0xe7	-0.047068357
106	0x17	0.04330289
107	0x1d	0.054599296
108	0xfb	-0.009413672
109	0x0b	0.020710077
110	0xf2	-0.02635828
111	0xf0	-0.03012375
112	0x07	0.01317914
113	0xdb	-0.06966117
114	0x17	0.04330289
115	0xef	-0.032006484
116	0x01	0.0018827344
117	0x11	0.032006484
118	0x09	0.01694461
119	0xf2	-0.02635828
120	0x0f	0.028241016
121	0x04	0.0075309374
122	0x0f	0.028241016
123	0x19	0.047068357
124	0x0e	0.02635828
125	0x20	0.0602475
126	0x13	0.03577195
127	0x06	0.011296406
128	0x1f	0.058364764
129	0x05	0.009413672
130	0x03	0.005648203
131	0xfc	-0.0075309374
132	0x1c	0.05271656
133	0x17	0.04330289
134	0xf6	-0.018827343
135	0xff	-0.0018827344
136	0xf3	-0.024475547
137	0xe0	-0.0602475
138	0x05	0.009413672
139	0x02	0.0037654687
140	0xfc	-0.0075309374
141	0x11	0.032006484
142	0xf2	-0.02635828
143	0xfc	-0.0075309374
144	0x20	0.0602475
145	0x12	0.03388922
146	0xe7	-0.047068357
147	0xe4	-0.05271656
148	0xe0	-0.0602475
149	0xe9	-0.04330289
150	0x0b	0.020710077
151	0x1e	0.056482032
152	0x12	0.03388922
153	0x00	0.0
154	0xdc	-0.06777844
155	0x21	0.062130235
156	0x22	0.06401297
157	0x14	0.037654687
158	0x06	0.011296406
159	0x20	0.0602475
160	0xf2	-0.02635828
161	0xe1	-0.058364764
162	0xe0	-0.0602475
163	0x13	0.03577195
164	0x1e	0.056482032
165	0x0d	0.024475547
166	0xee	-0.03388922
167	0xde	-0.06401297
168	0x02	0.0037654687
169	0x1f	0.058364764
170	0xf3	-0.024475547
171	0xe1	-0.058364764
172	0x1d	0.054599296
173	0xf8	-0.015061875
174	0xdd	-0.0658957
175	0xe4	-0.05271656
176	0x0c	0.022592813
177	0xfd	-0.005648203
178	0xec	-0.037654687
179	0xfd	-0.005648203
180	0x05	0.009413672
181	0x1d	0.054599296
182	0x1d	0.054599296
183	0x1a	0.048951093
184	0x06	0.011296406
185	0x21	0.062130235
186	0xfe	-0.0037654687
187	0x1e	0.056482032
188	0xec	-0.037654687
189	0x12	0.03388922
190	0xff	-0.0018827344
191	0xf9	-0.01317914
192	0x06	0.011296406
193	0x1b	0.05083383
194	0xdf	-0.062130235
195	0xe5	-0.05083383
196	0xfc	-0.0075309374
197	0x0b	0.020710077
198	0x0a	0.018827343
199	0x0e	0.02635828
200	0xf0	-0.03012375
201	0x1a	0.048951093
202	0x1c	0.05271656
203	0xed	-0.03577195
204	0x03	0.005648203
205	0xef	-0.032006484
206	0x0e	0.02635828
207	0xe1	-0.058364764
208	0xf0	-0.03012375
209	0x15	0.039537422
210	0x04	0.0075309374
211	0xfb	-0.009413672
212	0x03	0.005648203
213	0x07	0.01317914
214	0xf2	-0.02635828
215	0xe3	-0.054599296
216	0xe2	-0.056482032
217	0x05	0.009413672
218	0x06	0.011296406
219	0x0f	0.028241016
220	0x03	0.005648203
221	0x09	0.01694461
222	0x1c	0.05271656
223	0x1f	0.058364764
224	0xff	-0.0018827344
225	0xff	-0.0018827344
226	0xf1	-0.028241016
227	0x0c	0.022592813
228	0x13	0.03577195
229	0x07	0.01317914
230	0x0f	0.028241016
231	0x1e	0.056482032
232	0x1d	0.054599296
233	0xf9	-0.01317914
234	0xeb	-0.039537422
235	0xe5	-0.05083383
236	0x19	0.047068357
237	0xfd	-0.005648203
238	0xe7	-0.047068357
239	0xf3	-0.024475547
240	0x1a	0.048951093
241	0x12	0.03388922
242	0x08	0.015061875
243	0xe6	-0.048951093
244	0xdb	-0.06966117
245	0xf0	-0.03012375
246	0xf0	-0.03012375
247	0xf9	-0.01317914
248	0x14	0.037654687
249	0x13	0.03577195
250	0x02	0.0037654687
251	0x11	0.032006484
252	0x1e	0.056482032
253	0x00	0.0
254	0xe7	-0.047068357
255	0x05	0.009413672

sequential_1/lstm_4/while/lstm_cell_4/BiasAdd/ReadVariableOp f4 [512]
0	0xbc6a5aac	-0.014303844
1	0xbd9c3828	-0.076278985
2	0xbd86e852	-0.0658728
3	0xbd860d40	-0.06545496
4	0x3bcba8f5	0.0062152096
5	0xbc64dcdc	-0.013968673
6	0xbcfd5497	-0.030924125
7	0xbc48d750	-0.012258366
8	0xbd62958c	-0.0553184
9	0xbd9c11c3	-0.07620575
10	0xbddbef0c	-0.10738954
11	0x3d11126f	0.03541797
12	0xbce35ec2	-0.027755145
13	0x3c184f89	0.009296306
14	0x3cd70996	0.026249688
15	0xbda53f07	-0.08068662
16	0x3c657bff	0.014006614
17	0xbd0950ce	-0.033524327
18	0xbd98a42a	-0.07453187
19	0xbd7a7711	-0.061148707
20	0xbb349df4	-0.0027559968
21	0xbd605349	-0.054766927
22	0xbc587373	-0.013211119
23	0xbc983795	-0.018581191
24	0xbd3a276d	-0.045447756
25	0x3ceb5f9d	0.028732115
26	0xba4934e2	-0.00076754217
27	0xbbcf6847	-0.0063295695
28	0xbd0509f5	-0.0324802
29	0xbc866a56	-0.016408127
30	0xbd2f5e08	-0.042814285
31	0x3c8d352b	0.017237267
32	0xbd9f1fa8	-0.0776971
33	0xbd132ed3	-0.035933327
34	0xbdb3ec0d	-0.087852575
35	0xbc162ac6	-0.009165471
36	0xbccef697	-0.025264068
37	0xbd04a9e6	-0.03238859
38	0xbd7f869e	-0.06238424
39	0xbc496e53	-0.01229437
40	0x3cd19633	0.025584316
41	0xbd6c6339	-0.057711814
42	0xbdb2d206	-0.08731465
43	0xbd36aca9	-0.044598255
44	0xbd26a035	-0.04068013
45	0xbd4a1303	-0.049334537
46	0xbcfaa72a	-0.030597288
47	0xbd44f39c	-0.048083887
48	0xbc226737	-0.009912304
49	0xbcad6f90	-0.021171361
50	0xbd3b6182	-0.045747288
51	0xbd511c9e	-0.051052682
52	0xbc9fea5a	-0.019520927
53	0x3c318151	0.010834054
54	0xbd106bdf	-0.035259124
55	0xbd13671f	-0.035987016
56	0x3d3299cc	0.043603703
57	0xbd01b445	-0.03166606
58	0xbd57439c	-0.05255471
59	0xbc788d86	-0.015170461
60	0x3c9234da	0.017847467
61	0x3b2e7330	0.002661895
62	0xbb960fcc	-0.00457952
63	0xbd9e5922	-0.077318445
64	0xbd04a53e	-0.03238415
65	0xbd6eb11f	-0.058274385
66	0x3d405e72	0.04696507
67	0xbd573046	-0.05253627
68	0xbcbf5c1d	-0.023359353
69	0xbda8fdb7	-0.08251517
70	0xbc243e8b	-0.010024677
71	0xbd94bdfc	-0.07262799
72	0xbd79ef8e	-0.061019473
73	0xbc9f4884	-0.019443758
74	0x3cb35d97	0.021895213
75	0xbd6bb5aa	-0.057546295
76	0xbd1af679	-0.03783271
77	0x3cbd3e55	0.023101011
78	0xbc7ccf10	-0.015430227
79	0x3bb0b0da	0.005392176
80	0xbd0f2eed	-0.03495686
81	0xbd3e5466	-0.046467207
82	0xbd211383	-0.03932525
83	0x3d8489a5	0.06471566
84	0xbd379d29	-0.044827614
85	0xbdb99cb2	-0.090630904
86	0xbbfd626a	-0.007732679
87	0x3dacf163	0.08444478
88	0xbc27c3e8	-0.010239579
89	0xbd26216f	-0.04055923
90	0x3bd57509	0.006514196
91	0xbcd00dd9	-0.025397228
92	0xbd6192da	-0.05507169
93	0xbcb21702	-0.021739487
94	0xbce1522d	-0.027505005
95	0xbc9c87eb	-0.01910778
96	0xbd0d2ad3	-0.03446467
97	0xbc00272d	-0.00782184
98	0xbc82fd7d	-0.015990013
99	0xbcf89b1c	-0.0303474
100	0xbc367720	-0.0111368
101	0xbccac424	-0.02475173
102	0xbd23318f	-0.039842185
103	0x3d4d9dba	0.050199248
104	0xbc0225b5	-0.00794356
105	0xbd9c3ada	-0.076284125
106	0xbd2d4c1e	-0.04230892
107	0x3d1842a6	0.037172936
108	0xbd23b775	-0.03996988
109	0x3bdfee08	0.0068337955
110	0xbd922989	-0.071368285
111	0xbd42631f	-0.04745781
112	0xbc8468bc	-0.016163222
113	0xbd2ce51e	-0.04221069
114	0xbd0ed5db	-0.034871917
115	0xbd774495	-0.06036814
116	0xbcdfb02c	-0.027305685
117	0xbd45326c	-0.04814379
118	0xbdbeca31	-0.09315909
119	0xbd92ee25	-0.07174329
120	0xbd1be851	-0.03806335
121	0xbcec3b8e	-0.028836992
122	0x3bb02a9b	0.0053761727
123	0x3cc1cfd2	0.023658667
124	0xbc4ecdd1	-0.012622313
125	0xbc8e63a5	-0.017381499
126	0xbc8a2de5	-0.016867587
127	0xbdbd36d3	-0.092389725
128	0x3f7fa565	0.9986175
129	0x3f6a004f	0.9140672
130	0x3f6f0d5c	0.9337976
131	0x3f6985c2	0.91219723
132	0x3f7f6428	0.997622
133	0x3f78a3cc	0.97124934
134	0x3f7d53cd	0.98955995
135	0x3f7aa438	0.9790683
136	0x3f771513	0.9651653
137	0x3f6de312	0.92924607
138	0x3f6c3ec9	0.922833
139	0x3f753635	0.9578584
140	0x3f73fa93	0.9530422
141	0x3f8018bc	1.0007548
142	0x3f7f0b57	0.9962668
143	0x3f7137d2	0.942258
144	0x3f779bc2	0.9672204
145	0x3f7d0d48	0.9884839
146	0x3f6cb3c1	0.9246178
147	0x3f668267	0.9004273
148	0x3f81693c	1.011024
149	0x3f72db1f	0.948656
150	0x3f7cdc50	0.9877367
151	0x3f766787	0.9625172
152	0x3f767dcc	0.962857
153	0x3f804012	1.0019553
154	0x3f76f739	0.9647098
155	0x3f7dfcde	0.9921397
156	0x3f7247c1	0.9464074
157	0x3f7b0bed	0.9806507
158	0x3f6fd43c	0.9368322
159	0x3f8261eb	1.0186132
160	0x3f6cde07	0.92526287
161	0x3f7bd433	0.98370665
162	0x3f6f56b8	0.934917
163	0x3f7dca1b	0.99136513
164	0x3f7eb564	0.9949553
165	0x3f73a1ca	0.95168746
166	0x3f7c4058	0.9853568
167	0x3f7839e4	0.96963334
168	0x3f835616	1.0260646
169	0x3f75a62b	0.9595668
170	0x3f6fbed4	0.93650556
171	0x3f747a44	0.9549906
172	0x3f77ef02	0.9684907
173	0x3f714c0a	0.9425665
174	0x3f71e2dc	0.94486785
175	0x3f801483	1.000626
176	0x3f814e4d	1.010202
177	0x3f759211	0.95926005
178	0x3f788060	0.97070885
179	0x3f72384e	0.94617164
180	0x3f78cf2e	0.9719113
181	0x3f7e42b2	0.9932052
182	0x3f7d9c65	0.99066764
183	0x3f7edcee	0.9955586
184	0x3f81cd42	1.0140765
185	0x3f782be6	0.96941984
186	0x3f6f73a5	0.93535835
187	0x3f6eba72	0.9325324
188	0x3f6f401f	0.93457216
189	0x3f772137	0.96535057
190	0x3f6f99e0	0.9359417
191	0x3f6deb17	0.92936844
192	0x3f79df76	0.976066
193	0x3f6fb3f3	0.93633956
194	0x3f7f8a0b	0.9982001
195	0x3f7576b6	0.95884264
196	0x3f7759cf	0.9662141
197	0x3f6bf8f8	0.9217677
198	0x3f7c5c99	0.9857879
199	0x3f7801d8	0.96877813
200	0x3f764d8e	0.9621209
201	0x3f797b3d	0.9745367
202	0x3f85ce3e	1.0453565
203	0x3f79b0d2	0.9753543
204	0x3f7c50d8	0.9856086
205	0x3f82e239	1.0225288
206	0x3f7b46d6	0.9815496
207	0x3f81e2e4	1.0147367
208	0x3f7bc06f	0.98340505
209	0x3f7633c8	0.9617276
210	0x3f782eb8	0.9694629
211	0x3f8a8308	1.0821238
212	0x3f7209b7	0.94546074
213	0x3f68ff72	0.9101478
214	0x3f7fb54f	0.9988603
215	0x3f8922a9	1.0713702
216	0x3f7cafff	0.9870605
217	0x3f76ebb4	0.96453404
218	0x3f824979	1.0178672
219	0x3f81ebf9	1.0150138
220	0x3f770aa1	0.96500593
221	0x3f7b2e7f	0.9811782
222	0x3f7d624e	0.98978126
223	0x3f7ab1f9	0.97927815
224	0x3f7e2c3b	0.9928624
225	0x3f7ff10f	0.999772
226	0x3f7969a1	0.974268
227	0x3f68731f	0.9080066
228	0x3f7cf0f2	0.98805153
229	0x3f7f8ab8	0.99821043
230	0x3f789190	0.9709711
231	0x3f81939e	1.0123174
232	0x3f7d127f	0.9885635
233	0x3f6ab705	0.91685516
234	0x3f77283c	0.9654577
235	0x3f836b38	1.0267096
236	0x3f6e42bc	0.9307058
237	0x3f7ecf93	0.99535483
238	0x3f6cec1d	0.9254778
239	0x3f7d2649	0.98886544
240	0x3f7cb70a	0.98716795
241	0x3f831a33	1.024237
242	0x3f7aa05a	0.9790093
243	0x3f6ed9a6	0.93300855
244	0x3f7aa8d1	0.97913843
245	0x3f67d770	0.90563107
246	0x3f689c5f	0.90863603
247	0x3f6f2514	0.9341595
248	0x3f76f811	0.9647227
249	0x3f798da9	0.9748178
250	0x3f7b46b2	0.9815475
251	0x3f8461c8	1.034234
252	0x3f784522	0.9698049
253	0x3f7c18fc	0.98475623
254	0x3f7a5a01	0.97793585
255	0x3f681c9b	0.9066865

sequential_1/lstm_4/while/lstm_cell_4/MatMul_11 i1 [512, 128] scale=0.0033158793 zero_point=0
0	0x0b	0.03647467
1	0x00	0.0
2	0xf2	-0.04642231
3	0xf4	-0.039790552
4	0xf5	-0.03647467
5	0xfe	-0.0066317585
6	0xf4	-0.039790552
7	0xf7	-0.029842913
8	0xfa	-0.019895276
9	0xe6	-0.08621286
10	0x0e	0.04642231
11	0xda	-0.12600341
12	0xdb	-0.12268753
13	0x0f	0.049738187
14	0x0a	0.033158794
15	0x0e	0.04642231
16	0xfa	-0.019895276
17	0x18	0.079581104
18	0x1a	0.08621286
19	0xfb	-0.016579397
20	0xf0	-0.05305407
21	0x11	0.05636995
22	0xf4	-0.039790552
23	0x19	0.082896985
24	0xfe	-0.0066317585
25	0xfe	-0.0066317585
26	0xf6	-0.033158794
27	0xfd	-0.009947638
28	0xfa	-0.019895276
29	0x0b	0.03647467
30	0xf6	-0.033158794
31	0xfa	-0.019895276
32	0xf0	-0.05305407
33	0x20	0.10610814
34	0xfa	-0.019895276
35	0xe9	-0.07626522
36	0xf7	-0.029842913
37	0x06	0.019895276
38	0xf5	-0.03647467
39	0xfd	-0.009947638
40	0x07	0.023211155
41	0x01	0.0033158793
42	0x19	0.082896985
43	0xed	-0.06300171
44	0x1d	0.0961605
45	0x29	0.13595106
46	0xec	-0.06631759
47	0xed	-0.06300171
48	0xec	-0.06631759
49	0xe4	-0.09284462
50	0xfb	-0.016579397
51	0x01	0.0033158793
52	0x02	0.0066317585
53	0x0e	0.04642231
54	0xf5	-0.03647467
55	0xef	-0.05636995
56	0x02	0.0066317585
57	0xd7	-0.13595106
58	0x01	0.0033158793
59	0x1b	0.08952874
60	0xfc	-0.013263517
61	0xe7	-0.082896985
62	0x12	0.059685826
63	0xd7	-0.13595106
64	0x02	0.0066317585
65	0x1d	0.0961605
66	0xf5	-0.03647467
67	0x0e	0.04642231
68	0xfd	-0.009947638
69	0xf2	-0.04642231
70	0xfc	-0.013263517
71	0x21	0.10942402
72	0xf8	-0.026527034
73	0x06	0.019895276
74	0xfe	-0.0066317585
75	0xf8	-0.026527034
76	0xdb	-0.12268753
77	0x0d	0.04310643
78	0x03	0.009947638
79	0xf1	-0.049738187
80	0xed	-0.06300171
81	0x00	0.0
82	0x01	0.0033158793
83	0xf0	-0.05305407
84	0x00	0.0
85	0xf1	-0.049738187
86	0xfd	-0.009947638
87	0xde	-0.1127399
88	0x02	0.0066317585
89	0x04	0.013263517
90	0xf5	-0.03647467
91	0x03	0.009947638
92	0x15	0.06963346
93	0x23	0.11605577
94	0x0d	0.04310643
95	0x12	0.059685826
96	0xf6	-0.033158794
97	0x13	0.06300171
98	0xf9	-0.023211155
99	0x01	0.0033158793
100	0xf2	-0.04642231
101	0x0b	0.03647467
102	0xe8	-0.079581104
103	0x02	0.0066317585
104	0x06	0.019895276
105	0x17	0.07626522
106	0x09	0.029842913
107	0xf7	-0.029842913
108	0x13	0.06300171
109	0xf0	-0.05305407
110	0x11	0.05636995
111	0xfe	-0.0066317585
112	0xff	-0.0033158793
113	0x09	0.029842913
114	0xed	-0.06300171
115	0x06	0.019895276
116	0xfc	-0.013263517
117	0x1c	0.09284462
118	0x1a	0.08621286
119	0x02	0.0066317585
120	0xf1	-0.049738187
121	0xf5	-0.03647467
122	0xe0	-0.10610814
123	0x07	0.023211155
124	0xf9	-0.023211155
125	0xf3	-0.04310643
126	0x18	0.079581104
127	0x0b	0.03647467
128	0xf9	-0.023211155
129	0x18	0.079581104
130	0xeb	-0.06963346
131	0xf1	-0.049738187
132	0xef	-0.05636995
133	0xe5	-0.08952874
134	0xec	-0.06631759
135	0x01	0.0033158793
136	0xec	-0.06631759
137	0x0d	0.04310643
138	0xc6	-0.192321
139	0xf4	-0.039790552
140	0xf9	-0.023211155
141	0x1d	0.0961605
142	0x0e	0.04642231
143	0xf2	-0.04642231
144	0x00	0.0
145	0xfc	-0.013263517
146	0xec	-0.06631759
147	0xe4	-0.09284462
148	0x02	0.0066317585
149	0x05	0.016579397
150	0xf7	-0.029842913
151	0xff	-0.0033158793
152	0xf8	-0.026527034
153	0xee	-0.059685826
154	0xf2	-0.04642231
155	0xf7	-0.029842913
156	0xf4	-0.039790552
157	0xef	-0.05636995
158	0xf8	-0.026527034
159	0xef	-0.05636995
160	0xdb	-0.12268753
161	0xf2	-0.04642231
162	0x13	0.06300171
163	0x01	0.0033158793
164	0xf9	-0.023211155
165	0x0d	0.04310643
166	0xde	-0.1127399
167	0x17	0.07626522
168	0x21	0.10942402
169	0xe2	-0.099476375
170	0xf4	-0.039790552
171	0x0b	0.03647467
172	0xf8	-0.026527034
173	0x00	0.0
174	0xfe	-0.0066317585
175	0xea	-0.07294934
176	0x08	0.026527034
177	0x09	0.029842913
178	0xf4	-0.039790552
179	0xf6	-0.033158794
180	0xfd	-0.009947638
181	0xf6	-0.033158794
182	0x1d	0.0961605
183	0xf2	-0.04642231
184	0x09	0.029842913
185	0xea	-0.07294934
186	0xf1	-0.049738187
187	0xfd	-0.009947638
188	0xf8	-0.026527034
189	0xe7	-0.082896985
190	0x0f	0.049738187
191	0x10	0.05305407
192	0xef	-0.05636995
193	0x00	0.0
194	0xe5	-0.08952874
195	0x04	0.013263517
196	0xef	-0.05636995
197	0x07	0.023211155
198	0x22	0.1127399
199	0xef	-0.05636995
200	0xd2	-0.15253045
201	0xee	-0.059685826
202	0xfb	-0.016579397
203	0xe4	-0.09284462
204	0x01	0.0033158793
205	0xf0	-0.05305407
206	0xe7	-0.082896985
207	0xef	-0.05636995
208	0x04	0.013263517
209	0x0f	0.049738187
210	0x01	0.0033158793
211	0x02	0.0066317585
212	0xf9	-0.023211155
213	0x01	0.0033158793
214	0x05	0.016579397
215	0xf6	-0.033158794
216	0xe6	-0.08621286
217	0x19	0.082896985
218	0xf7	-0.029842913
219	0xf3	-0.04310643
220	0x03	0.009947638
221	0xfd	-0.009947638
222	0xfe	-0.0066317585
223	0xe4	-0.09284462
224	0xdb	-0.12268753
225	0xfb	-0.016579397
226	0xf3	-0.04310643
227	0xd7	-0.13595106
228	0xdb	-0.12268753
229	0x03	0.009947638
230	0xea	-0.07294934
231	0x05	0.016579397
232	0xff	-0.0033158793
233	0xfb	-0.016579397
234	0xf7	-0.029842913
235	0xe5	-0.08952874
236	0xea	-0.07294934
237	0xe0	-0.10610814
238	0xe7	-0.082896985
239	0xf7	-0.029842913
240	0xf9	-0.023211155
241	0x11	0.05636995
242	0x09	0.029842913
243	0xeb	-0.06963346
244	0xd9	-0.1293193
245	0xf3	-0.04310643
246	0xe8	-0.079581104
247	0xef	-0.05636995
248	0xf2	-0.04642231
249	0x05	0.016579397
250	0xd3	-0.14921457
251	0xd2	-0.15253045
252	0xd8	-0.13263518
253	0xe9	-0.07626522
254	0xe0	-0.10610814
255	0xee	-0.059685826
