app/src/main/assets/gesturesModel.tflite (tflite, 481368 bytes, 15 tensors)

sequential_5/dense_17/MatMul f4 [11, 32]
-0.053180795 -0.46875378 0.15168998 -0.29010886 0.3573965 0.058355965 0.34127337 -0.3411235
0.16431405 0.11889525 0.24692413 -0.051423263 -0.53303355 0.060914587 0.22593844 -0.6285571
-0.13750769 0.10595808 0.12731566 0.043355454 -0.11329959 0.21947092 -0.19959491 0.3341282
-0.19665353 0.5153977 -0.21913381 0.20047504 -0.59589916 0.18218207 0.1333476 -0.120720565
-0.16430947 -0.610184 -0.1652466 -0.07643459 -0.1489693 0.35531968 0.12017689 0.1738112
0.11740796 0.13307813 0.49210617 -0.11053628 0.4625196 0.21703993 0.046867687 -0.11325913
0.23073713 -0.04238918 0.15173912 0.13457845 -0.210253 -0.46939164 -0.029786645 0.41661012
0.2820677 -0.00912169 0.032224994 -0.24886695 -0.60352194 0.37672105 0.0049196044 0.28653282
0.2947881 0.35646898 0.4755459 0.106063336 0.06581218 -0.12976667 0.3594454 0.48726475
-0.87461084 0.22325985 0.4639816 -0.024265707 -0.13276473 -0.6189161 -0.19653383 -0.60208607
-0.16764872 0.0016682773 -0.029043946 -0.13068707 -0.34600896 -0.302098 -0.5520799 -0.6195699
0.13925633 -0.6468245 -0.04566801 0.44079942 -0.14365673 0.4383121 -1.0672307 -0.12195537
-0.49042225 0.45202023 -0.42568976 -0.22258516 0.24866007 -0.41998142 -0.92057693 -0.17720096
-0.094574645 0.27981576 -0.11667704 -0.30986458 -0.042639256 0.0791166 0.2078924 0.016891146
-0.063389435 -0.25774044 0.04148962 0.19493304 0.13291256 0.22420052 0.42584977 -0.049160067
0.23171872 0.22527663 0.32444367 0.19724548 -0.08009345 0.09890011 -0.045460302 0.07616846
0.39450875 -0.098701194 -0.1933017 -0.010333995 -0.5532048 0.24983867 0.15435825 -0.037144832
0.2217085 0.41679823 -1.258874 0.2686398 -0.28961444 -0.31346855 0.24458626 0.30300543
0.3484873 0.058900774 0.009561977 -0.22038488 -0.3034086 -0.4019682 -0.8315887 0.010383245
-0.25105017 -0.20915005 -0.12957713 0.29347396 0.43840146 0.009149395 -0.11969246 -0.39653644
-0.49164033 0.065989286 0.58858436 0.31579223 0.39985174 0.09476241 0.03275729 -0.08296443
-0.16646545 0.06494511 0.43846366 -0.37047264 0.15770926 0.12510051 0.069378026 0.3865331
-0.24079864 0.16486035 0.14699726 0.104963206 0.17019635 0.03519727 -0.019487249 -0.0099928565
-0.20318013 -0.02313828 -0.27729076 -0.3475692 -0.06373377 0.41469145 -0.031094857 0.33516026
-0.027681757 -0.3510143 -0.21605453 -0.11035667 -0.38456175 -0.27476898 0.33858997 0.41616458
0.0044314573 -0.41135073 0.1490715 -0.15787375 -0.4664459 0.15048347 0.32466024 -0.7093295
0.3748169 -0.30404687 -0.43365428 -0.3016556 -0.09302083 0.3706884 -0.82971525 -0.8447419
-0.2886046 0.057742108 0.11877625 -0.12759294 0.10020148 -0.12527879 -0.7437449 -0.6617003
0.21163945 0.29299983 -0.5817459 0.13324912 0.27766585 0.09453705 0.56349164 -0.3522458
0.3599278 -0.07537656 -0.6443186 0.07886445 -0.43532664 0.2682609 -0.6668615 -0.1543699
0.27686152 0.19150518 0.0928375 -0.21122259 -0.2732369 0.026339268 -0.48073202 -0.18584386
0.19131587 0.04049531 -0.23330583 -0.3805564 -0.2545979 -0.3846945 0.20488067 -0.02856029
00000000: 1bd4 59bd 7f00 f0be 9e54 1b3e 2689 94be
00000010: adfc b63e aa06 6f3d 62bb ae3e bda7 aebe
00000020: f141 283e 5a7f f33d aed9 7c3e 33a1 52bd
00000030: e374 08bf 9381 793d 685c 673e 1ee9 20bf
00000040: d1ce 0cbe 8d00 d93d 095f 023e 7d95 313d
00000050: 9e09 e8bd fcbc 603e 9c62 4cbe da12 ab3e
00000060: 8b5f 49be 1bf1 033f 9d64 60be 5449 4d3e
00000070: d98c 18bf f08d 3a3e 468c 083e 583c f7bd
00000080: be40 28be 0535 1cbf 6836 29be bd89 9cbd
00000090: 688b 18be 76ec b53e 4d1f f63d 90fb 313e
000000a0: 9673 f03d a245 083e 57f5 fb3e d860 e2bd
000000b0: 5ecf ec3e b73f 5e3e 55f8 3f3d 67f4 e7bd
000000c0: 5b46 6c3e 47a0 2dbd 8061 1b3e efce 093e
000000d0: 904c 57be 1a54 f0be 1f03 f4bc ec4d d53e
000000e0: 2d6b 903e 2473 15bc 5bfe 033d fad6 7ebe
000000f0: 6a80 1abf 95e1 c03e a234 a13b 6eb4 923e
00000100: 77ee 963e 1a83 b63e c17a f33e bc37 d93d
00000110: 89c8 863d 8ee1 04be 3a09 b83e c47a f93e
00000120: 7fe6 5fbf 3b9e 643e ff8e ed3e e0c8 c6bc
00000130: 7af3 07be 4971 1ebf 2a40 49be 5022 1abf
00000140: 1bac 2bbe 19aa da3a 92ed edbc d5d2 05be
00000150: 1628 b1be 97ac 9abe 1c55 0dbf 229c 1ebf
00000160: 3699 0e3e 4a96 25bf 610e 3bbd 76b0 e13e
00000170: c01a 13be 726a e03e 049b 88bf bdc3 f9bd
00000180: a018 fbbe 326f e73e 02f4 d9be 5ded 63be
00000190: bfa0 7e3e ce07 d7be eeaa 6bbf 2b74 35be
000001a0: 5ab0 c1bd 0344 8f3e 5ff4 eebd 92a6 9ebe
000001b0: 80a6 2ebd e207 a23d bfe1 543e 4d5f 8a3c
000001c0: 52d2 81bd 8ef6 83be 05f1 293d 879c 473e
000001d0: 3b1a 083e d294 653e fb08 da3e 115c 49bd
000001e0: ac47 6d3e ebae 663e 7b1d a63e b8fa 493e
000001f0: 0908 a4bd 248c ca3d 9534 3abd 36fe 9b3d
00000200: 0dfd c93e da23 cabd e1f0 45be eb4f 29bc
00000210: d49e 0dbf b5d5 7f3e 1710 1e3e 2e25 18bd
00000220: 8e07 633e 9466 d53e c922 a1bf 288b 893e
00000230: 5848 94be f37e a0be d274 7a3e 8723 9b3e
00000240: ed6c b23e f041 713d d7a9 1c3c 93ac 61be
00000250: 5f58 9bbe c7ce cdbe ffe2 54bf 7c1e 2a3c
00000260: a689 80be 6e2b 56be deaf 04be 3842 963e
00000270: 2876 e03e 58e7 153c 5221 f5bd d306 cbbe
00000280: 48b8 fbbe 6425 873d 77ad 163f 85af a13e
00000290: 5eb9 cc3e cb12 c23d 822c 063d 41e9 a9bd
000002a0: eb75 2abe f101 853d 4f7e e03e 97ae bdbe
000002b0: 897e 213e 591a 003e 1116 8e3d abe7 c53e
000002c0: eb93 76be 27d1 283e 7386 163e f3f6 d63d
000002d0: f447 2e3e 032b 103d b9a3 9fbc 14b9 23bc
000002e0: 740e 50be 7d8c bdbc 0ef9 8dbe 97f4 b1be
000002f0: da86 82bd 7052 d43e a4ba febc 209a ab3e
00000300: dac4 e2bc 25b8 b3be 663d 5dbe ae02 e2bd
00000310: 47e5 c4be 85ae 8cbe aa5b ad3e 8613 d53e
00000320: c235 913b 909c d2be 33a6 183e a8a9 21be
00000330: ffd1 eebe 5718 1a3e de39 a63e 9e96 35bf
00000340: 00e8 bf3e 08ac 9bbe ef07 debe 9a72 9abe
00000350: b481 bebd dfca bd3e 3868 54bf 0141 58bf
00000360: fbc3 93be fd82 6c3d f640 f33d b9a7 02be
00000370: 6f36 cd3d 1549 00be 1166 3ebf 3165 29bf
00000380: 03b8 583e 1304 963e 4ded 14bf 7572 083e
00000390: 382a 8e3e a49c c13d fd40 103f 9059 b4be
000003a0: 7548 b83e 075f 9abd 10f2 24bf af83 a13d
000003b0: 22e3 debe 7e59 893e 6fb7 2abf 2513 1ebe
000003c0: cbc0 8d3e ef19 443e 9621 be3d bc4a 58be
000003d0: b5e5 8bbe 73c5 d73c 8222 f6be da4d 3ebe
000003e0: 4fe8 433e 69de 253d b9e7 6ebe 4ad8 c2be
000003f0: a85a 82be adf6 c4be 3dcc 513e 45f7 e9bc

sequential_5/dense_17/BiasAdd/ReadVariableOp f4 [11]
0.101359166 0.3835658 -0.011054129 0.09453979 0.088685594 -0.38987985 0.03280399 -0.13458471
-0.3162388 0.10934224 0.006652099
00000000: 6595 cf3d bd62 c43e 611c 35bc 149e c13d
00000010: cba0 b53d 559e c7be 7a5d 063d 93d0 09be
00000020: 0dea a1be d3ee df3d daf9 d93b

sequential_5/dense_16/BiasAdd/ReadVariableOp f4 [32]
0.2274918 -0.090803325 -0.30439636 -0.04222754 -0.054431543 -0.1479968 0.058060285 0.22075462
0.3590598 0.07608284 0.21463631 4.7981368e-05 0.07984408 0.012325145 0.13835253 -0.29165792
-0.0004752458 -0.05473325 -0.11108238 -0.13783729 0.00106457 0.066991255 0.27829623 0.4062589
-0.05074091 0.04595047 -0.06693027 0.009415058 0.09041477 -0.115391396 0.2839816 0.09735407
00000000: 9cf3 683e 18f7 b9bd d7d9 9bbe c9f6 2cbd
00000010: 9cf3 5ebd 798c 17be 9fd0 6d3d 800d 623e
00000020: b0d6 b73e 52d1 9b3d 9fc9 5b3e 9a3f 4938
00000030: 4b85 a33d 68ef 493c 49ac 0d3e 3054 95be
00000040: 692a f9b9 f92f 60bd 297f e3bd 3825 0dbe
00000050: 0b89 8b3a b632 893d d87c 8e3e 2b01 d03e
00000060: b3d5 4fbd 8f36 3c3d bd12 89bd 9e41 1a3c
00000070: 612b b93d 5352 ecbd 0966 913e 9261 c73d

sequential_5/dense_15/BiasAdd/ReadVariableOp f4 [64]
-0.09635974 0.05410199 0.432026 -0.076270886 -0.30976188 -0.08710161 0.33344197 -0.239997
0.44502842 -0.14614832 -0.16203825 -0.28421783 -0.28470963 0.3886392 -0.4779696 0.3777356
0.39648443 0.08916716 -0.2366228 -0.24205767 -0.020311099 0.21423435 -0.24497163 0.6960005
-0.17146108 0.2684634 0.05284788 -0.40923563 -0.11900106 -0.2463302 0.049320996 0.52853125
0.35912028 0.23917612 0.09199584 -0.30187586 -0.17826582 0.099936865 0.19659795 -0.07927859
-0.045527395 0.30844018 0.1467662 0.0831247 0.19148204 0.09714031 -0.1405638 0.38746125
-0.26565456 -0.10391013 0.07093966 -0.20047203 -0.07683719 0.3488446 -0.18081678 0.11373121
0.1540912 -0.15918785 -0.18525615 -0.09394689 0.0841703 0.08055069 0.027212646 -0.11628647
00000000: 4158 c5bd 0c9a 5d3d 8332 dd3e e933 9cbd
00000010: 1c99 9ebe 5462 b2bd e8b8 aa3e c6c1 75be
00000020: c4da e33e e8a7 15be 5bed 25be 0085 91be
00000030: 76c5 91be b8fb c63e 6eb8 f4be 9066 c13e
00000040: 0200 cb3e 469d b63d 3f4d 72be f7dd 77be
00000050: 7663 a6bc 4060 5b3e d8d9 7abe 172d 323f
00000060: 7e93 2fbe 0974 893e 0577 583d 5587 d1be
00000070: d4b6 f3bd fc3d 7cbe d004 4a3d d34d 073f
00000080: 9dde b73e 96ea 743e 5168 bc3d 798f 9abe
00000090: 518b 36be b3ab cc3d f950 493e d05c a2bd
000000a0: ef7a 3abd dfeb 9d3e e149 163e 483d aa3d
000000b0: de13 443e 80f1 c63d f5ef 0fbe 5261 c63e
000000c0: e003 88be d6ce d4bd d048 913d 8a48 4dbe
000000d0: d15c 9dbd c29b b23e 0928 39be e9eb e83d
000000e0: 15ca 1d3e 2402 23be cab3 3dbe 3a67 c0bd
000000f0: 7a61 ac3d c3f7 a43d 0eed de3c 9a27 eebd

sequential_5/dense_15/MatMul i1 [64, 64] scale=0.006066886 zero_point=0
0.07280263 0.012133772 0.030334428 -0.030334428 0.13953838 0.07280263 0.13347149 -0.09707017
0.27907676 0.09707017 -0.0424682 0.12133771 -0.024267543 -0.29121053 -0.20627412 0.21840788
0.0 -0.46108332 0.15773903 0.012133772 0.048535086 0.13347149 -0.024267543 0.18200657
-0.22447477 0.078869514 -0.048535086 -0.030334428 -0.060668856 0.006066886 0.012133772 -0.15773903
0.12133771 0.060668856 -0.1274046 0.060668856 0.18200657 0.10313706 0.09707017 -0.23054166
-0.018200658 -0.030334428 -0.024267543 0.048535086 0.27907676 -0.28514364 0.1698728 0.18200657
0.36401314 -0.006066886 0.1698728 0.12133771 -0.024267543 0.16380592 0.006066886 0.13347149
-0.05460197 -0.018200658 0.0424682 0.10920394 0.10313706 -0.23054166 -0.2608761 -0.024267543
0.10313706 -0.20020723 -0.006066886 -0.07280263 0.066735744 -0.20627412 0.10313706 -0.10313706
-0.09707017 0.20627412 0.20627412 -0.10920394 0.18200657 -0.030334428 -0.3458125 0.012133772
-0.3458125 0.0424682 -0.20020723 -0.066735744 0.18807346 0.27907676 -0.10920394 -0.26694298
-0.13953838 -0.16380592 0.0849364 -0.20627412 0.091003284 0.14560527 -0.19414034 0.13347149
-0.19414034 -0.024267543 0.10313706 -0.048535086 0.0424682 0.18807346 0.0 0.1274046
-0.16380592 0.0849364 -0.2972774 0.1698728 -0.24267542 0.10920394 -0.091003284 -0.15167214
0.15773903 -0.11527083 -0.2972774 0.1274046 -0.13347149 -0.066735744 -0.212341 0.07280263
-0.066735744 -0.19414034 -0.16380592 0.16380592 0.20627412 0.20020723 0.1759397 0.3882807
-0.20020723 -0.10313706 -0.0849364 0.16380592 -0.43074888 0.091003284 0.060668856 -0.066735744
-0.39434758 0.16380592 -0.20627412 0.24267542 0.11527083 0.13953838 0.012133772 -0.10920394
-0.23054166 -0.060668856 -0.13953838 0.23660855 0.036401317 0.13953838 0.05460197 0.066735744
0.012133772 0.20627412 0.16380592 0.030334428 0.30334428 0.066735744 -0.1759397 -0.091003284
0.10313706 0.078869514 0.12133771 -0.11527083 0.091003284 -0.078869514 -0.45501643 -0.2608761
0.006066886 0.26694298 0.10920394 -0.030334428 -0.0849364 0.16380592 0.16380592 -0.29121053
-0.05460197 -0.16380592 -0.1698728 -0.18200657 -0.3761469 0.1759397 0.036401317 -0.0424682
-0.11527083 0.0 -0.13347149 -0.21840788 -0.24267542 0.11527083 -0.13347149 -0.048535086
-0.20627412 0.0424682 -0.19414034 -0.13347149 0.012133772 0.018200658 0.18200657 -0.07280263
-0.26694298 0.23054166 -0.13953838 0.1274046 0.13953838 -0.006066886 -0.33367872 0.036401317
-0.060668856 -0.060668856 -0.18807346 0.024267543 0.13347149 0.066735744 0.13953838 0.060668856
0.07280263 0.18807346 0.16380592 -0.15773903 -0.12133771 -0.15773903 -0.066735744 -0.048535086
0.13953838 -0.15167214 -0.10313706 0.19414034 0.012133772 0.091003284 0.3397456 -0.11527083
-0.0849364 -0.060668856 0.11527083 0.036401317 0.05460197 -0.1759397 0.18200657 0.16380592
-0.29121053 -0.23660855 0.030334428 0.036401317 -0.15167214 -0.13953838 -0.078869514 0.0424682
0.13347149 0.09707017 -0.15167214 -0.18807346 0.07280263 -0.066735744 0.05460197 0.27300987
00000000: 0c02 05fb 170c 16f0 2e10 f914 fcd0 de24
00000010: 00b4 1a02 0816 fc1e db0d f8fb f601 02e6
00000020: 140a eb0a 1e11 10da fdfb fc08 2ed1 1c1e
00000030: 3cff 1c14 fc1b 0116 f7fd 0712 11da d5fc
00000040: 11df fff4 0bde 11ef f022 22ee 1efb c702
00000050: c707 dff5 1f2e eed4 e9e5 0ede 0f18 e016
00000060: e0fc 11f8 071f 0015 e50e cf1c d812 f1e7
00000070: 1aed cf15 eaf5 dd0c f5e0 e51b 2221 1d40
00000080: dfef f21b b90f 0af5 bf1b de28 1317 02ee
00000090: daf6 e927 0617 090b 0222 1b05 320b e3f1
000000a0: 110d 14ed 0ff3 b5d5 012c 12fb f21b 1bd0
000000b0: f7e5 e4e2 c21d 06f9 ed00 eadc d813 eaf8
000000c0: de07 e0ea 0203 1ef4 d426 e915 17ff c906
000000d0: f6f6 e104 160b 170a 0c1f 1be6 ece6 f5f8
000000e0: 17e7 ef20 020f 38ed f2f6 1306 09e3 1e1b
000000f0: d0d9 0506 e7e9 f307 1610 e7e1 0cf5 092d

sequential_5/dense_16/MatMul i1 [32, 64] scale=0.006847454 zero_point=0
0.095864356 -0.23281343 -0.24650833 -0.18488126 0.061627083 -0.6231183 0.06847454 0.061627083
-0.11640672 -0.23966089 -0.16433889 0.047932178 -0.027389815 0.26020324 -0.32867777 0.11640672
-0.5204065 -0.36291504 -0.3971523 0.0 0.16433889 0.18488126 -0.11640672 0.28759307
-0.21227106 -0.28759307 0.15749143 -0.26020324 -0.36291504 -0.40399978 0.075321995 -0.46562687
-0.075321995 -0.03423727 0.19172871 -0.41084722 -0.54094887 0.027389815 0.26020324 0.13694908
-0.11640672 0.20542361 0.006847454 0.4176947 -0.36291504 -0.123254165 -0.19857615 0.17118634
-0.28759307 0.15064399 0.19857615 -0.2807456 0.03423727 0.19172871 0.03423727 0.075321995
0.3423727 -0.061627083 -0.2533558 -0.15064399 0.31498286 -0.03423727 0.05477963 0.08216944
0.27389815 -0.123254165 -0.13694908 0.027389815 0.20542361 0.11640672 0.15064399 -0.006847454
0.13010162 -0.095864356 0.123254165 0.15749143 0.11640672 -0.03423727 0.095864356 0.37660995
0.02054236 -0.2944405 -0.02054236 0.23281343 -0.047932178 -0.5820336 -0.05477963 0.23281343
0.21227106 0.123254165 0.13694908 0.061627083 0.20542361 0.19172871 -0.047932178 -0.39030486
-0.13694908 0.4176947 0.2944405 0.30128798 0.16433889 0.061627083 0.13694908 -0.15749143
0.0890169 -0.13010162 -0.34922016 -0.18488126 0.03423727 -0.22596598 -0.05477963 0.102711804
0.027389815 -0.24650833 0.11640672 0.34922016 0.047932178 0.21227106 0.075321995 -0.17118634
0.14379653 0.0890169 -0.23281343 -0.0890169 -0.21227106 -0.27389815 0.10955926 0.2533558
0.03423727 0.02054236 -0.2807456 0.18488126 0.24650833 -0.05477963 0.006847454 -0.30813542
-0.37660995 0.04108472 -0.14379653 0.22596598 0.047932178 0.006847454 -0.22596598 -0.6231183
-0.006847454 0.15064399 -0.027389815 -0.23966089 -0.061627083 0.0890169 -0.006847454 -0.02054236
-0.36291504 -0.123254165 -0.14379653 0.061627083 -0.14379653 -0.123254165 -0.19857615 -0.19172871
0.11640672 -0.006847454 -0.02054236 0.047932178 -0.08216944 0.08216944 -0.51355904 0.19172871
-0.05477963 0.075321995 0.22596598 -0.095864356 0.03423727 -0.013694908 -0.102711804 -0.6505081
-0.027389815 -0.03423727 0.21227106 0.02054236 -0.0890169 0.04108472 0.075321995 0.30128798
-0.14379653 0.30813542 -0.10955926 0.06847454 0.2807456 0.18488126 0.15064399 -0.19172871
-0.05477963 0.047932178 0.19172871 -0.03423727 -0.05477963 -0.19857615 -0.19172871 0.2533558
-0.11640672 -0.013694908 0.14379653 0.20542361 0.17118634 -0.05477963 -0.04108472 0.17118634
0.06847454 0.08216944 -0.1780338 -0.19857615 0.19172871 -0.19172871 0.123254165 -0.13694908
0.03423727 -0.11640672 -0.047932178 -0.13694908 0.14379653 -0.047932178 0.02054236 -0.08216944
-0.17118634 0.061627083 0.16433889 -0.15064399 -0.24650833 -0.08216944 0.03423727 0.0
-0.095864356 -0.11640672 0.19172871 -0.19172871 0.11640672 -0.075321995 0.17118634 -0.095864356
-0.19172871 0.15064399 -0.3423727 0.13010162 0.21911852 -0.15749143 -0.075321995 -0.22596598
-0.2533558 -0.21227106 -0.16433889 0.095864356 -0.08216944 -0.15749143 0.03423727 0.04108472
00000000: 0ede dce5 09a5 0a09 efdd e807 fc26 d011
00000010: b4cb c600 181b ef2a e1d6 17da cbc5 0bbc
00000020: f5fb 1cc4 b104 2614 ef1e 013d cbee e319
00000030: d616 1dd7 051c 050b 32f7 dbea 2efb 080c
00000040: 28ee ec04 1e11 16ff 13f2 1217 11fb 0e37
00000050: 03d5 fd22 f9ab f822 1f12 1409 1e1c f9c7
00000060: ec3d 2b2c 1809 14e9 0ded cde5 05df f80f
00000070: 04dc 1133 071f 0be7 150d def3 e1d8 1025
00000080: 0503 d71b 24f8 01d3 c906 eb21 0701 dfa5
00000090: ff16 fcdd f70d fffd cbee eb09 ebee e3e4
000000a0: 11ff fd07 f40c b51c f80b 21f2 05fe f1a1
000000b0: fcfb 1f03 f306 0b2c eb2d f00a 291b 16e4
000000c0: f807 1cfb f8e3 e425 effe 151e 19f8 fa19
000000d0: 0a0c e6e3 1ce4 12ec 05ef f9ec 15f9 03f4
000000e0: e709 18ea dcf4 0500 f2ef 1ce4 11f5 19f2
000000f0: e416 ce13 20e9 f5df dbe1 e80e f4e9 0506

sequential_5/lstm_15/while/lstm_cell_30/BiasAdd/ReadVariableOp f4 [256]
-0.004560475 -0.030076038 -0.003466351 -0.0052034496 -0.008963488 0.013064086 -0.007449894 -0.0047239694
-0.0025695986 -0.004521386 -0.008063746 0.0020497064 -0.005891093 -0.004512639 -0.006070403 -0.005569512
0.042851254 -0.0032034968 -0.0044419887 -0.005125484 -0.0076101706 -0.0042237625 -0.0064725885 -0.00554548
-0.0034247655 -0.0064414567 -0.0037232575 -0.004918064 -0.009888725 -0.0023189043 -0.0043922733 -0.0058433055
-0.0061739883 -0.01969782 -0.0048312643 -0.0050229677 -0.009048995 -0.0045210035 -0.012990949 -0.004703456
-0.01433999 0.0 -0.0068571186 -0.005219676 -0.024839459 -0.009788612 -0.0066770907 -0.004636676
-0.0039845975 -0.0047137146 0.006264465 -0.0069987485 -0.0045347577 -0.00503501 -0.006581733 -0.008038492
-0.025291875 -0.0064372127 -0.008777469 -0.008836965 -0.002237976 -0.023408363 -0.0045135748 -0.0052334545
0.9954561 0.9745664 0.9948191 0.99477804 0.99069417 0.9947332 0.9928211 0.9952308
0.9934038 0.9955185 0.99087924 0.9997308 0.9940818 0.99556553 0.99437577 0.99444175
0.9961711 0.9959892 0.99577737 0.994976 0.99193484 0.99193096 0.9934587 0.9944428
0.99634415 0.9936049 0.9959747 0.99459434 0.990282 0.99544716 0.99562466 0.9938721
0.9938125 0.97796214 0.99508435 0.99493086 0.99382615 1.0068239 0.98248094 0.99540746
0.992327 1.0 0.9936677 0.9944854 1.015359 0.9897549 0.99857026 0.9953755
0.99594104 0.9961918 0.9926059 0.9935893 0.9934537 0.9952168 0.99342793 0.99161893
0.97799605 0.99391407 0.99193484 0.99191326 0.9968354 0.9793466 0.9955313 0.9947722
-0.0065050055 -0.021127088 1.5643733e-05 -0.005227429 -0.005629872 0.0020101387 -0.011416338 -0.0045804903
-0.0015036418 -0.0042180195 -0.0035814678 -0.0060410853 -0.005995798 -0.004314207 -0.006516972 -0.0055648037
0.10256088 -0.0027844817 -0.0035591673 -0.0059828833 -0.004941283 -0.022024404 -0.0041392664 -0.0055566216
-0.0022867604 -0.007040506 -0.0059666745 -0.0019553155 -0.011438875 -0.0059029977 -0.004320695 -0.006084244
-0.0056842486 -0.020885233 -0.004563854 -0.0052168923 -0.0019191699 -0.0040542027 -0.010951708 -0.0045912676
-0.00819468 0.0 -0.00493848 -0.003164254 0.005691995 -0.009033949 -0.008346918 -0.004696061
-0.003627461 -0.0032011443 -0.0042435103 -0.005851351 -0.0045377347 -0.0050221947 -0.0065725786 -0.00793833
-0.026599608 -0.00659917 -0.0049154637 -0.0113424165 -0.0036308311 -0.025510076 -0.0046914015 -0.005280356
-0.0045573316 -0.028453112 -0.007807586 -0.0052232808 -0.007334526 -0.014297578 0.00012249997 -0.0046871454
-0.0013334847 -0.0045039435 0.001452438 0.0020438856 -0.0058835973 -0.004461069 -0.006171822 -0.0055689854
0.077549785 -0.0035504764 -0.0043963906 -0.0052452786 -0.0073340815 -0.016879397 -0.006492972 -0.005558159
-0.0040307366 -0.006301407 -0.00327858 -0.0039839866 -0.010653234 -0.0046727695 -0.004357214 -0.006766813
-0.0062259748 -0.019747123 -0.0047806953 -0.0050975434 -0.005122016 -0.004534421 -0.012129222 -0.004651926
-0.016003069 0.0 -0.0059475875 -0.005856399 0.01505557 -0.010234962 -0.007449822 -0.0046230545
-0.0041816626 -0.0033200898 0.0062295445 -0.0069024377 -0.006114914 -0.005323061 -0.006604275 -0.008205954
-0.027784029 -0.021376211 -0.008707366 -0.010811666 0.0009040889 -0.024157627 -0.0045104763 -0.005234651
00000000: 0970 95bb 0662 f6bc b82b 63bb b381 aabb
00000010: 98db 12bc c00a 563c 3e1e f4bb 87cb 9abb
00000020: b666 28bb 2328 94bb cd1d 04bc 5e54 063b
00000030: 120a c1bb c2de 93bb 3bea c6bb 7480 b6bb
00000040: cc84 2f3d c2f1 51bb 1a8e 91bb adf3 a7bb
00000050: bd5e f9bb 7d67 8abb 0218 d4bb dcb6 b5bb
00000060: 0872 60bb db12 d3bb e501 74bb b627 a1bb
00000070: 5204 22bc c2f8 17bb 0fed 8fbb 3379 bfbb
00000080: 2b4f cabb 535d a1bc 954f 9ebb b597 a4bb
00000090: 3c42 14bc ed24 94bb fdd7 54bc 731f 9abb
000000a0: 47f2 6abc 0000 0000 aeb1 e0bb d109 abbb
000000b0: 1f7c cbbc 6a60 20bc 7fcb dabb 42ef 97bb
000000c0: 3a91 82bb 8175 9abb 2446 cd3b c255 e5bb
000000d0: 4e98 94bb bafc a4bb 94ab d7bb e1b3 03bc
000000e0: e830 cfbc 41ef d2bb 60cf 0fbc ebc8 10bc
000000f0: 02ab 12bb e5c2 bfbc 9ce6 93bb 667d abbb
00000100: 36d6 7e3f 2f7d 793f 77ac 7e3f c6a9 7e3f
00000110: 229e 7d3f d6a6 7e3f 8629 7e3f 72c7 7e3f
00000120: b64f 7e3f 4dda 7e3f 43aa 7d3f 5cee 7f3f
00000130: 257c 7e3f 62dd 7e3f 698f 7e3f bc93 7e3f
00000140: 1205 7f3f 26f9 7e3f 44eb 7e3f bfb6 7e3f
00000150: 71ef 7d3f 30ef 7d3f 4f53 7e3f ce93 7e3f
00000160: 6910 7f3f e45c 7e3f 33f8 7e3f bc9d 7e3f
00000170: 1f83 7d3f a0d5 7e3f 42e1 7e3f 676e 7e3f
00000180: 7f6a 7e3f ba5b 7a3f d9bd 7e3f cab3 7e3f
00000190: 646b 7e3f 9bdf 803f df83 7b3f 06d3 7e3f
000001a0: 2409 7e3f 0000 803f 0261 7e3f 9896 7e3f
000001b0: 49f7 813f 9460 7d3f 4da2 7f3f eed0 7e3f
000001c0: fef5 7e3f 6d06 7f3f 6c1b 7e3f de5b 7e3f
000001d0: fb52 7e3f 87c6 7e3f 4b51 7e3f bdda 7d3f
000001e0: f35d 7a3f 2771 7e3f 71ef 7d3f 07ee 7d3f
000001f0: 9b30 7f3f 75b6 7a3f 24db 7e3f 64a9 7e3f
00000200: f127 d5bb b712 adbc a93a 8337 da4a abbb
00000210: ca7a b8bb 88bc 033b 980b 3bbc f017 96bb
00000220: d915 c5ba 5037 8abb 0fb7 6abb 4cf4 c5bb
00000230: 6678 c4bb 315e 8dbb 538c d5bb f558 b6bb
00000240: 700b d23d da7b 36bb eb40 69bb 100c c4bb
00000250: 7cea a1bb 866c b4bc afa2 87bb 5214 b6bb
00000260: 79dd 15bb 0cb4 e6bb 1884 c3bb c024 00bb
00000270: 1f6a 3bbc ef6d c1bb 9e94 8dbb 575e c7bb
00000280: ef42 babb 8217 abbc 628c 95bb 77f2 aabb
00000290: a88c fbba 1ed9 84bb cb6e 33bc 5872 96bb
000002a0: fb42 06bc 0000 0000 f9d2 a1bb 5f5f 4fbb
000002b0: ea83 ba3b 2103 14bc 83c1 08bc 6ae1 99bb
000002c0: b2ba 6dbb 4aca 51bb 250d 8bbb b1bc bfbb
000002d0: 47b1 94bb 3991 a4bb c95e d7bb c50f 02bc
000002e0: 6ce7 d9bc da3d d8bb e611 a1bb 8bd5 39bc
000002f0: 3df3 6dbb 82fa d0bc 54ba 99bb d606 adbb
00000300: ab55 95bb 8016 e9bc c7d6 ffbb 0e28 abbb
00000310: 7756 f0bb 6340 6abc 5673 0039 a096 99bb
00000320: 52c8 aeba d195 93bb bb5f be3a b6f2 053b
00000330: 31cb c0bb 292e 92bb ff3c cabb 097c b6bb
00000340: 6cd2 9e3d 1caf 68bb 990f 90bb 96e0 abbb
00000350: bc52 f0bb a946 8abc ffc2 d4bb 3821 b6bb
00000360: 4514 84bb 087c cebb 72dd 56bb 1a8c 82bb
00000370: e78a 2ebc 081e 99bb f6c6 8ebb 24bc ddbb
00000380: 4303 ccbb b8c4 a1bc 61a7 9cbb 4b09 a7bb
00000390: 96d6 a7bb 7b95 94bb a5b9 46bc 2f6f 98bb
000003a0: de18 83bc 0000 0000 fbe3 c2bb 09e7 bfbb
000003b0: a3ab 763c 8bb0 27bc a31d f4bb fe7c 97bb
000003c0: 5406 89bb dd95 59bb 3521 cc3b d82d e2bb
000003d0: 9e5f c8bb 126d aebb ad68 d8bb 4472 06bc
000003e0: 559b e3bc 2a1d afbc 57a9 0ebc 6a23 31bc
000003f0: 6100 6d3a 37e6 c5bc 9ecc 93bb 6f87 abbb

sequential_5/lstm_15/while/lstm_cell_30/MatMul_11 i1 [256, 64] scale=0.0019711654 zero_point=0
0.0019711654 0.0 -0.019711655 0.04336564 -0.013798158 0.007884662 -0.065048456 0.08870244
0.019711655 0.011826992 -0.045336805 -0.035480976 -0.12812576 0.04336564 0.007884662 0.07096195
-0.09067361 -0.084760115 -0.033509813 0.09264477 -0.033509813 -0.019711655 0.041394472 0.013798158
-0.061106127 -0.02562515 0.1025006 -0.031538647 -0.015769323 0.057163797 -0.08081778 0.08673128
-0.0019711654 0.015769323 -0.104471765 -0.12812576 0.035480976 -0.013798158 0.007884662 -0.15966439
0.013798158 -0.1419239 -0.019711655 -0.049279135 0.059134964 -0.12615459 -0.07096195 0.023653984
-0.037452143 0.027596315 -0.033509813 0.017740488 0.0 -0.035480976 -0.06899079 -0.009855827
0.02168282 -0.009855827 0.13798158 -0.035480976 0.0512503 0.015769323 0.053221468 -0.015769323
0.015769323 0.031538647 0.011826992 0.011826992 0.09855827 -0.104471765 -0.06899079 0.114327595
-0.005913496 -0.057163797 0.06899079 -0.07293312 -0.019711655 -0.09461594 -0.045336805 -0.029567482
0.037452143 -0.1084141 0.08081778 -0.16952023 0.037452143 -0.013798158 0.019711655 0.05519263
-0.005913496 0.12615459 0.04336564 0.07293312 -0.106442936 -0.005913496 -0.07096195 0.074904285
-0.053221468 -0.035480976 -0.084760115 0.045336805 0.03942331 -0.06307729 -0.065048456 0.007884662
-0.04730797 0.031538647 0.11826993 -0.04730797 0.027596315 -0.061106127 0.029567482 0.057163797
0.03942331 0.037452143 -0.09658711 0.11629876 0.033509813 -0.04336564 0.035480976 0.02168282
-0.009855827 0.005913496 0.09461594 -0.07096195 0.02168282 0.06899079 0.0 -0.023653984
-0.023653984 0.065048456 -0.029567482 0.013798158 -0.041394472 0.005913496 -0.0019711654 -0.09067361
-0.114327595 0.033509813 -0.019711655 -0.031538647 0.07096195 0.033509813 -0.114327595 0.05519263
0.045336805 0.003942331 0.061106127 -0.05519263 0.015769323 -0.009855827 -0.035480976 -0.05519263
0.08870244 -0.009855827 0.049279135 -0.0019711654 0.02562515 0.041394472 0.02168282 0.13798158
0.084760115 0.06307729 -0.033509813 0.09264477 -0.045336805 0.08081778 -0.015769323 -0.0019711654
-0.037452143 -0.10052944 0.059134964 -0.1419239 -0.053221468 0.07096195 0.005913496 0.017740488
-0.009855827 -0.027596315 0.009855827 -0.011826992 0.13601041 0.10052944 -0.14980857 0.029567482
-0.02562515 0.003942331 0.033509813 0.02562515 0.053221468 -0.03942331 0.09264477 0.04336564
-0.005913496 -0.13403925 -0.10052944 0.007884662 0.0512503 0.09658711 -0.02562515 -0.03942331
-0.053221468 0.07687545 -0.07293312 0.07884662 0.04730797 -0.061106127 -0.003942331 -0.05519263
-0.13798158 -0.005913496 0.003942331 -0.04336564 0.04336564 0.017740488 0.04336564 -0.009855827
0.16952023 -0.07293312 0.009855827 -0.07687545 -0.013798158 0.08870244 0.0019711654 0.04730797
0.0512503 -0.007884662 -0.07293312 -0.02562515 -0.07687545 -0.009855827 0.13009691 0.059134964
-0.13206808 -0.074904285 0.09461594 0.019711655 0.114327595 0.045336805 -0.06899079 -0.029567482
-0.065048456 -0.08081778 0.009855827 -0.084760115 -0.09855827 -0.08081778 0.08673128 0.003942331
-0.07687545 -0.05519263 0.019711655 0.029567482 0.027596315 -0.045336805 0.0512503 -0.011826992
00000000: 0100 f616 f904 df2d 0a06 e9ee bf16 0424
00000010: d2d5 ef2f eff6 1507 e1f3 34f0 f81d d72c
00000020: ff08 cbbf 12f9 04af 07b8 f6e7 1ec0 dc0c
00000030: ed0e ef09 00ee ddfb 0bfb 46ee 1a08 1bf8
00000040: 0810 0606 32cb dd3a fde3 23db f6d0 e9f1
00000050: 13c9 29aa 13f9 0a1c fd40 1625 cafd dc26
00000060: e5ee d517 14e0 df04 e810 3ce8 0ee1 0f1d
00000070: 1413 cf3b 11ea 120b fb03 30dc 0b23 00f4
00000080: f421 f107 eb03 ffd2 c611 f6f0 2411 c61c
00000090: 1702 1fe4 08fb eee4 2dfb 19ff 0d15 0b46
000000a0: 2b20 ef2f e929 f8ff edcd 1eb8 e524 0309
000000b0: fbf2 05fa 4533 b40f f302 110d 1bec 2f16
000000c0: fdbc cd04 1a31 f3ec e527 db28 18e1 fee4
000000d0: bafd 02ea 1609 16fb 56db 05d9 f92d 0118
000000e0: 1afc dbf3 d9fb 421e bdda 300a 3a17 ddf1
000000f0: dfd7 05d5 ced7 2c02 d9e4 0a0f 0ee9 1afa

sequential_5/lstm_15/while/lstm_cell_30/MatMul i1 [256, 1086] scale=0.0028125588 zero_point=0
-0.06750141 0.059063733 0.019687911 -0.061876293 0.02250047 0.05343862 0.047813497 -0.050626058
-0.061876293 0.014062794 0.061876293 0.050626058 -0.008437676 -0.0028125588 -0.0028125588 0.0028125588
-0.050626058 0.04500094 -0.014062794 -0.016875353 -0.064688854 0.0 0.02250047 0.019687911
-0.04500094 -0.014062794 0.0028125588 0.0056251176 0.039375823 -0.008437676 0.056251176 -0.0028125588
-0.033750705 -0.036563262 -0.028125588 -0.06750141 0.011250235 0.047813497 -0.008437676 0.0028125588
-0.008437676 -0.059063733 -0.061876293 -0.033750705 -0.036563262 -0.064688854 -0.02250047 -0.042188384
0.0056251176 0.061876293 -0.039375823 0.0056251176 -0.030938147 0.059063733 -0.050626058 0.011250235
0.05343862 -0.047813497 0.05343862 -0.030938147 -0.036563262 0.030938147 -0.033750705 0.050626058
0.02250047 0.050626058 -0.047813497 0.02250047 -0.016875353 -0.033750705 -0.033750705 -0.06750141
-0.06750141 -0.008437676 -0.056251176 -0.019687911 -0.047813497 -0.028125588 -0.05343862 -0.05343862
-0.030938147 0.042188384 0.050626058 0.059063733 -0.0028125588 0.0028125588 -0.028125588 0.008437676
-0.025313029 -0.05343862 0.014062794 -0.011250235 -0.019687911 -0.047813497 0.0028125588 -0.047813497
-0.050626058 -0.050626058 0.036563262 0.059063733 0.04500094 0.059063733 -0.0056251176 -0.050626058
0.039375823 0.014062794 0.047813497 -0.047813497 -0.011250235 0.05343862 0.059063733 0.039375823
-0.033750705 0.014062794 -0.033750705 -0.02250047 -0.025313029 -0.019687911 0.02250047 -0.042188384
0.036563262 -0.014062794 -0.0056251176 0.028125588 -0.0028125588 -0.064688854 -0.036563262 -0.036563262
-0.05343862 0.028125588 -0.059063733 -0.056251176 0.025313029 -0.033750705 0.0028125588 -0.06750141
-0.04500094 -0.030938147 -0.02250047 0.0028125588 -0.05343862 -0.030938147 0.039375823 -0.025313029
-0.06750141 -0.030938147 0.039375823 0.039375823 0.047813497 -0.039375823 0.025313029 0.019687911
0.05343862 -0.05343862 -0.056251176 0.047813497 -0.016875353 0.0056251176 0.036563262 -0.042188384
-0.059063733 -0.050626058 0.016875353 0.030938147 0.02250047 0.039375823 -0.047813497 -0.0056251176
0.042188384 -0.019687911 0.028125588 0.019687911 0.050626058 0.028125588 -0.019687911 0.008437676
-0.025313029 -0.02250047 0.0028125588 0.02250047 0.05343862 0.025313029 -0.016875353 -0.019687911
0.011250235 0.042188384 -0.036563262 -0.016875353 0.011250235 0.028125588 -0.056251176 -0.028125588
-0.047813497 0.008437676 -0.056251176 0.02250047 0.016875353 0.02250047 0.039375823 0.042188384
0.04500094 -0.011250235 0.008437676 -0.011250235 -0.042188384 0.016875353 -0.039375823 -0.042188384
-0.033750705 -0.042188384 -0.014062794 -0.05343862 -0.06750141 0.0 0.025313029 -0.036563262
0.039375823 0.028125588 -0.028125588 0.02250047 -0.028125588 0.016875353 -0.059063733 0.033750705
0.019687911 -0.050626058 -0.0056251176 -0.025313029 0.0028125588 0.019687911 0.025313029 0.039375823
0.019687911 -0.028125588 -0.030938147 -0.033750705 -0.0028125588 0.047813497 0.030938147 -0.019687911
0.0056251176 0.014062794 0.019687911 -0.030938147 0.059063733 -0.059063733 0.0056251176 -0.008437676
0.050626058 0.028125588 0.016875353 -0.059063733 -0.030938147 -0.050626058 -0.030938147 0.05343862
00000000: e815 07ea 0813 11ee ea05 1612 fdff ff01
00000010: ee10 fbfa e900 0807 f0fb 0102 0efd 14ff
00000020: f4f3 f6e8 0411 fd01 fdeb eaf4 f3e9 f8f1
00000030: 0216 f202 f515 ee04 13ef 13f5 f30b f412
00000040: 0812 ef08 faf4 f4e8 e8fd ecf9 eff6 eded
00000050: f50f 1215 ff01 f603 f7ed 05fc f9ef 01ef
00000060: eeee 0d15 1015 feee 0e05 11ef fc13 150e
00000070: f405 f4f8 f7f9 08f1 0dfb fe0a ffe9 f3f3
00000080: ed0a ebec 09f4 01e8 f0f5 f801 edf5 0ef7
00000090: e8f5 0e0e 11f2 0907 13ed ec11 fa02 0df1
000000a0: ebee 060b 080e effe 0ff9 0a07 120a f903
000000b0: f7f8 0108 1309 faf9 040f f3fa 040a ecf6
000000c0: ef03 ec08 0608 0e0f 10fc 03fc f106 f2f1
000000d0: f4f1 fbed e800 09f3 0e0a f608 f606 eb0c
000000e0: 07ee fef7 0107 090e 07f6 f5f4 ff11 0bf9
000000f0: 0205 07f5 15eb 02fd 120a 06eb f5ee f513

sequential_5/lstm_16/while/lstm_cell_31/BiasAdd/ReadVariableOp f4 [512]
-0.020830555 0.13843735 0.00019339008 0.012773061 -0.04231468 0.067740634 0.0055410494 -0.005295225
0.08648959 -0.03594272 -0.045424167 -0.00063794863 -0.042952884 -0.036012217 0.008617838 0.028677357
-0.027558351 -0.027026562 0.04651909 -0.052762497 -0.05887314 -0.035182692 -0.03487035 -0.008502477
0.023070838 0.013503851 -0.009344006 -0.034435477 -0.011427016 -0.029623723 -0.009611331 -0.025459561
-0.011746951 -0.049025405 -0.053372886 -0.06529006 -0.021609932 0.0048979684 -0.045603313 -0.0116715785
-0.025629478 -0.018473871 0.0032185868 -0.0049762134 -0.011755885 -0.044250082 0.09221902 -0.031216059
-0.032921895 0.1068848 0.099661484 -0.023717402 -0.002750354 -0.050157517 -0.010810285 -0.005938429
-0.0129873585 -0.009355719 -0.007232647 0.18030736 -0.042522695 -0.021123694 -0.014019431 -0.042685
-0.016994039 0.004105892 -0.0070338296 0.044785783 0.0036659036 0.05065684 -0.021337548 -0.010311369
0.14497414 -0.021477383 0.00440836 -0.0041425247 0.26477492 -0.019146541 0.010433173 -0.009217311
0.0012801242 -0.014096646 -0.049758863 -0.0135589875 0.033312235 -0.041941628 -0.023653459 -0.02040943
0.29656 -0.00935953 0.09627994 0.055890348 -0.013791625 -0.04500178 -0.0070139533 -0.04676982
-0.05723677 0.030338794 -0.015930904 0.00019473015 -0.043154538 -0.00427039 -0.017792454 -0.011873277
-0.019773839 -0.02312112 -0.04600289 0.07472224 -0.02352631 -0.07097196 -0.017378189 0.04273517
-0.005536452 -0.07942501 0.14109288 -0.03716851 -0.04614812 -0.035098083 0.021860143 -0.016167998
-0.023134734 -0.011283825 -0.0265604 -0.030669939 -0.07406554 -0.039150577 -0.0005904999 0.31215364
0.98352516 1.0191613 0.98052293 1.001099 0.96858335 1.1213852 1.0114148 0.9901125
1.1042022 0.9637022 0.988949 1.0050266 0.9618177 0.9876026 0.9984281 1.0029172
0.97401655 0.9736014 1.0226758 0.94602823 0.94980454 0.96031827 0.9741995 0.9983763
1.0344115 0.99462557 1.0334282 0.9729208 0.9680254 0.968333 0.98986924 0.97381926
0.9895535 0.95821774 0.92908835 0.96039206 0.9777545 1.0182574 0.9377941 0.99377304
1.0057206 1.0583693 1.0069482 0.9675238 0.9816712 0.9590257 1.0439836 0.9629918
0.98011804 0.9603125 1.1264925 0.9653208 0.9962063 0.95681643 0.98887163 0.99534005
0.9694642 0.98781985 1.0497777 1.1236737 0.9626745 0.9307665 0.99286675 1.0093657
0.9753027 1.0012388 1.0219258 1.0055457 0.999282 1.0087945 0.95911586 0.996686
1.0449951 0.9645823 0.98333484 0.98526525 1.2548034 0.9794455 1.0155926 1.0079852
1.0039976 1.0121531 0.9575438 0.98950773 0.99660474 0.9676559 0.9395333 0.9863013
1.0581456 1.0183936 1.0339652 1.065622 0.9877668 0.98880154 0.9924183 0.94702625
0.9513337 1.0449888 0.97690177 1.0026417 0.9893146 0.99929756 0.9808957 1.0013076
0.9586899 0.97784126 0.93882924 1.0320557 0.9882159 0.92007625 1.0137509 0.94701785
0.98213536 0.9611728 1.0734982 0.9752823 0.9611751 0.965651 1.0402864 0.9846633
1.0503939 0.95399624 0.97388124 0.98462576 0.8987948 0.9623326 1.0000652 1.2284633
00000000: d7a4 aabc 85c2 0d3e c1c8 4a39 1a46 513c
00000010: 2852 2dbd 9abb 8a3d b191 b53b 9183 adbb
00000020: 7421 b13d ac38 13bd b10e 3abd 023c 27ba
00000030: 5def 2fbd 8c81 13bd d531 0d3c c7ec ea3c
00000040: 0dc2 e1bc cf66 ddbc cd8a 3e3d 7d1d 58bd
00000050: f624 71bd ba1b 10bd 36d4 0ebd f94d 0bbc
00000060: 0eff bc3c 423f 5d3c 9a17 19bc 370c 0dbd
00000070: 6138 3bbc 73ad f2bc d878 1dbc 9290 d0bc
00000080: 4976 40bc ddce 48bd 879d 5abd ccb6 85bd
00000090: 5007 b1bc 237f a03b 8aca 3abd 263a 3fbc
000000a0: e9f4 d1bc 8456 97bc edee 523b 810f a3bb
000000b0: c19b 40bc 933f 35bd 53dd bc3d d2b8 ffbc
000000c0: 1cd9 06bd 6be6 da3d 521b cc3d ff4a c2bc
000000d0: 483f 34bb f871 4dbd 9f1d 31bc 2797 c2bb
000000e0: eec8 54bc bb48 19bc d7ff ecbb 7ea2 383e
000000f0: 472c 2ebd 990b adbc c1b1 65bc 77d6 2ebd
00000100: 1537 8bbc b88a 863b 0a7c e6bb 4c71 373d
00000110: a83f 703b 8c7d 4f3d 15cc aebc 04f1 28bc
00000120: 1a74 143e 56f1 afbc 0174 903b 04be 87bb
00000130: 9490 873e 35d9 9cbc e6ef 2a3c 3404 17bc
00000140: d7c9 a73a 9ef5 66bc f3cf 4bbd 8426 5ebc
00000150: 6972 083d fcca 2bbd e6c4 c1bc ad31 a7bc
00000160: b6d6 973e b758 19bc 6b2e c53d 47ed 643d
00000170: 45f6 61bc c953 38bd 4ed5 e5bb b691 3fbd
00000180: 1a71 6abd 1089 f83c 8781 82bc 7a30 4c39
00000190: d0c2 30bd a1ee 8bbb 7bc1 91bc 2288 42bc
000001a0: bffc a1bc 8168 bdbc 876d 3cbd f907 993d
000001b0: 40ba c0bc bf59 91bd b45c 8ebc 130b 2f3d
000001c0: 206b b5bb 94a9 a2bd a77a 103e 023e 18bd
000001d0: d005 3dbd 02c3 0fbd 0b14 b33c c072 84bc
000001e0: 0e85 bdbc cbdf 38bc 3295 d9bc 863f fbbc
000001f0: adaf 97bd 5b5c 20bd c7cb 1aba 9ad2 9f3e
00000200: 4ec8 7b3f e173 823f 8d03 7b3f 0324 803f
00000210: 14f5 773f 8d89 8f3f 0a76 813f 0378 7d3f
00000220: 7f56 8d3f 30b5 763f c32b 7d3f b6a4 803f
00000230: af39 763f 86d3 7c3f fc98 7f3f 975f 803f
00000240: 2659 793f f13d 793f 0ae7 823f e82e 723f
00000250: 6426 733f 6bd7 753f 2365 793f 9795 7f3f
00000260: 9967 843f c89f 7e3f 6047 843f 5611 793f
00000270: 83d0 773f ace4 773f 1268 7d3f 384c 793f
00000280: 6153 7d3f c24d 753f bcd8 6d3f 41dc 753f
00000290: 1e4e 7a3f 4256 823f 4613 703f e967 7e3f
000002a0: 74bb 803f a578 873f aee3 803f a4af 773f
000002b0: ce4e 7b3f b582 753f 41a1 853f a186 763f
000002c0: 04e9 7a3f 0ad7 753f e830 903f 441f 773f
000002d0: 6007 7f3f ecf1 743f b126 7d3f 9bce 7e3f
000002e0: ce2e 783f c3e1 7c3f 1e5f 863f 8ad4 8f3f
000002f0: d671 763f b746 6e3f 842c 7e3f e532 813f
00000300: 70ad 793f 9828 803f 77ce 823f b9b5 803f
00000310: f2d0 7f3f 2e20 813f 9e88 753f d026 7f3f
00000320: 66c2 853f deee 763f d5bb 7b3f 583a 7c3f
00000330: 669d a03f f1bc 7a3f f0fe 813f a905 813f
00000340: fe82 803f 3c8e 813f 9721 753f 6150 7d3f
00000350: 7d21 7f3f 4cb8 773f 4185 703f 3e7e 7c3f
00000360: 5171 873f b95a 823f f958 843f 4d66 883f
00000370: 49de 7c3f 1922 7d3f 200f 7e3f 5070 723f
00000380: 9b8a 733f 31c2 853f 3c16 7a3f 9056 803f
00000390: b943 7d3f f7d1 7f3f fb1b 7b3f d92a 803f
000003a0: b46c 753f ce53 7a3f 1d57 703f 671a 843f
000003b0: b8fb 7c3f 1e8a 6b3f 97c2 813f c36f 723f
000003c0: 396d 7b3f 6c0f 763f 6468 893f 1aac 793f
000003d0: 920f 763f e734 773f 1b28 853f e512 7c3f
000003e0: 4f73 863f 1939 743f 4850 793f 6f10 7c3f
000003f0: 6a17 663f 6e5b 763f 2302 803f 493e 9d3f

sequential_5/lstm_16/while/lstm_cell_31/MatMul_11 i1 [512, 128] scale=0.006597402 zero_point=0
-0.03298701 0.03298701 -0.03298701 -0.03298701 0.013194804 0.013194804 -0.07257142 -0.046181813
0.006597402 -0.05937662 -0.046181813 0.026389608 0.06597402 -0.07257142 0.013194804 -0.07916883
0.006597402 -0.03298701 0.006597402 -0.019792207 -0.05937662 -0.006597402 -0.039584413 -0.013194804
-0.052779216 -0.006597402 -0.07257142 0.0 -0.013194804 0.026389608 0.0 -0.026389608
-0.006597402 -0.03298701 0.026389608 0.006597402 -0.06597402 -0.07257142 -0.046181813 -0.013194804
0.026389608 0.03298701 -0.03298701 -0.026389608 0.07916883 0.026389608 -0.019792207 -0.006597402
-0.03298701 -0.09896103 -0.039584413 -0.085766226 0.0 -0.013194804 -0.026389608 0.006597402
0.006597402 -0.06597402 -0.06597402 0.0 -0.052779216 0.052779216 -0.07916883 0.052779216
-0.09896103 -0.052779216 -0.026389608 -0.019792207 -0.026389608 -0.06597402 -0.039584413 -0.026389608
-0.046181813 -0.006597402 -0.019792207 -0.07257142 -0.046181813 -0.12535064 -0.019792207 0.013194804
0.06597402 0.026389608 0.013194804 -0.046181813 -0.019792207 -0.006597402 -0.039584413 0.0
-0.039584413 -0.039584413 0.039584413 -0.05937662 0.05937662 -0.006597402 -0.10555843 -0.05937662
0.03298701 0.039584413 -0.026389608 0.0 -0.085766226 0.0 0.006597402 -0.026389608
-0.006597402 -0.03298701 0.006597402 0.09896103 0.013194804 0.006597402 -0.006597402 -0.006597402
-0.046181813 0.0 0.013194804 -0.019792207 0.013194804 0.026389608 0.03298701 -0.026389608
-0.046181813 0.006597402 0.026389608 -0.026389608 -0.046181813 -0.11875324 -0.046181813 -0.026389608
0.03298701 -0.03298701 0.0 -0.006597402 0.11875324 -0.013194804 -0.15174025 0.013194804
0.09896103 0.07257142 0.17153245 0.07916883 0.039584413 0.07916883 -0.07257142 -0.092363626
0.019792207 -0.03298701 0.03298701 0.09896103 -0.052779216 -0.085766226 -0.006597402 -0.039584413
0.06597402 0.026389608 0.21111687 0.052779216 0.11215583 -0.046181813 0.11215583 0.013194804
-0.026389608 -0.019792207 0.09896103 0.006597402 -0.019792207 0.07257142 0.019792207 -0.085766226
-0.77189606 0.15833765 0.019792207 0.013194804 0.019792207 0.085766226 0.013194804 -0.052779216
-0.013194804 -0.27709088 0.046181813 0.019792207 0.013194804 -0.07257142 -0.052779216 0.0
-0.006597402 0.026389608 0.17153245 -0.16493505 -0.039584413 0.092363626 -0.006597402 0.07257142
0.006597402 -0.039584413 0.21771426 0.23090906 0.046181813 0.0 0.06597402 -0.07257142
0.11215583 0.07916883 0.006597402 0.026389608 0.22431166 -0.019792207 0.026389608 -0.03298701
0.006597402 0.19132467 0.046181813 0.05937662 0.21111687 0.046181813 0.046181813 -0.10555843
0.17153245 -0.019792207 0.07916883 0.092363626 0.046181813 -0.019792207 -0.026389608 -0.013194804
-0.006597402 0.092363626 0.026389608 -0.013194804 0.15833765 -0.07916883 0.013194804 -0.039584413
-0.026389608 0.14514284 -0.013194804 0.039584413 0.21771426 0.07257142 0.25729868 0.12535064
0.026389608 -0.039584413 0.20451947 -0.19792207 0.013194804 0.013194804 -0.026389608 -0.092363626
0.11215583 0.14514284 0.013194804 0.052779216 0.19792207 -0.06597402 0.05937662 -0.11875324
00000000: fb05 fbfb 0202 f5f9 01f7 f904 0af5 02f4
00000010: 01fb 01fd f7ff fafe f8ff f500 fe04 00fc
00000020: fffb 0401 f6f5 f9fe 0405 fbfc 0c04 fdff
00000030: fbf1 faf3 00fe fc01 01f6 f600 f808 f408
00000040: f1f8 fcfd fcf6 fafc f9ff fdf5 f9ed fd02
00000050: 0a04 02f9 fdff fa00 fafa 06f7 09ff f0f7
00000060: 0506 fc00 f300 01fc fffb 010f 0201 ffff
00000070: f900 02fd 0204 05fc f901 04fc f9ee f9fc
00000080: 05fb 00ff 12fe e902 0f0b 1a0c 060c f5f2
00000090: 03fb 050f f8f3 fffa 0a04 2008 11f9 1102
000000a0: fcfd 0f01 fd0b 03f3 8b18 0302 030d 02f8
000000b0: fed6 0703 02f5 f800 ff04 1ae7 fa0e ff0b
000000c0: 01fa 2123 0700 0af5 110c 0104 22fd 04fb
000000d0: 011d 0709 2007 07f0 1afd 0c0e 07fd fcfe
000000e0: ff0e 04fe 18f4 02fa fc16 fe06 210b 2713
000000f0: 04fa 1fe2 0202 fcf2 1116 0208 1ef6 09ee

sequential_5/lstm_16/while/lstm_cell_31/MatMul i1 [512, 64] scale=0.003133959 zero_point=0
0.03447355 -0.012535836 0.090884805 0.094018765 0.037607506 -0.106554605 0.02820563 -0.100286685
-0.006267918 -0.08775085 0.018803753 -0.097152725 -0.025071671 0.047009382 -0.07834897 -0.040741466
-0.1222244 -0.037607506 -0.08775085 0.06267918 0.025071671 -0.043875426 0.090884805 -0.07521501
0.05641126 -0.025071671 0.06267918 0.08148293 -0.040741466 -0.021937713 -0.043875426 -0.043875426
0.100286685 0.0689471 -0.037607506 -0.08461689 0.050143342 -0.053277303 -0.053277303 0.012535836
-0.006267918 0.02820563 -0.021937713 -0.053277303 0.043875426 0.07521501 0.07834897 -0.0689471
0.0 -0.03133959 0.0689471 0.043875426 -0.02820563 -0.100286685 0.021937713 0.07834897
-0.040741466 -0.05641126 -0.08461689 0.08775085 -0.043875426 -0.040741466 0.018803753 -0.040741466
-0.006267918 -0.06267918 -0.07521501 0.08461689 0.047009382 0.050143342 -0.094018765 0.06267918
0.08148293 -0.097152725 -0.05641126 -0.02820563 -0.02820563 -0.05641126 -0.07208105 0.05641126
0.08775085 0.03133959 -0.05954522 -0.07208105 -0.053277303 -0.02820563 0.003133959 0.003133959
0.043875426 0.0689471 0.03133959 -0.02820563 -0.08775085 0.043875426 -0.08775085 -0.08461689
-0.08775085 -0.040741466 -0.0094018765 -0.100286685 -0.0689471 -0.047009382 -0.03447355 -0.037607506
0.050143342 0.06267918 0.07834897 0.07521501 0.07834897 -0.094018765 -0.097152725 0.037607506
0.07834897 0.037607506 -0.06581314 -0.050143342 -0.05641126 -0.043875426 -0.08775085 -0.07521501
0.043875426 -0.025071671 0.021937713 0.097152725 -0.012535836 0.021937713 0.012535836 0.103420645
0.08148293 -0.0689471 0.053277303 0.03447355 -0.047009382 0.02820563 -0.06267918 0.050143342
-0.08148293 -0.025071671 0.05641126 0.08775085 0.003133959 -0.05954522 -0.018803753 0.05641126
0.06581314 0.050143342 0.0689471 -0.07208105 -0.043875426 -0.047009382 0.021937713 0.018803753
-0.090884805 -0.07208105 -0.094018765 -0.08148293 -0.07834897 -0.047009382 -0.006267918 0.037607506
-0.094018765 0.015669795 -0.053277303 0.047009382 -0.08461689 0.06267918 -0.025071671 -0.0689471
-0.053277303 0.06267918 0.08775085 -0.018803753 0.07834897 -0.103420645 0.053277303 0.05954522
0.08775085 -0.047009382 0.08461689 0.07208105 0.047009382 -0.090884805 -0.050143342 0.018803753
-0.100286685 0.090884805 0.037607506 -0.03133959 0.07208105 0.100286685 0.0 0.06581314
0.012535836 -0.05641126 -0.047009382 0.040741466 -0.03447355 0.018803753 -0.08148293 -0.07834897
0.05954522 -0.037607506 0.094018765 -0.07521501 -0.097152725 -0.015669795 0.07521501 0.094018765
0.08148293 -0.08148293 0.07208105 0.090884805 0.047009382 -0.053277303 -0.03447355 0.06267918
0.012535836 -0.08461689 -0.043875426 0.053277303 -0.0689471 0.03447355 0.0689471 0.094018765
0.06267918 -0.053277303 0.043875426 0.06581314 -0.08148293 0.040741466 -0.021937713 -0.003133959
-0.053277303 0.07521501 -0.021937713 0.08775085 -0.06267918 0.0094018765 0.021937713 -0.05954522
-0.02820563 0.08775085 -0.094018765 0.0689471 -0.05954522 -0.021937713 0.015669795 -0.05954522
0.012535836 -0.053277303 0.100286685 0.003133959 0.03133959 0.05954522 0.06267918 0.0094018765
00000000: 0bfc 1d1e 0cde 09e0 fee4 06e1 f80f e7f3
00000010: d9f4 e414 08f2 1de8 12f8 141a f3f9 f2f2
00000020: 2016 f4e5 10ef ef04 fe09 f9ef 0e18 19ea
00000030: 00f6 160e f7e0 0719 f3ee e51c f2f3 06f3
00000040: feec e81b 0f10 e214 1ae1 eef7 f7ee e912
00000050: 1c0a ede9 eff7 0101 0e16 0af7 e40e e4e5
00000060: e4f3 fde0 eaf1 f5f4 1014 1918 19e2 e10c
00000070: 190c ebf0 eef2 e4e8 0ef8 071f fc07 0421
00000080: 1aea 110b f109 ec10 e6f8 121c 01ed fa12
00000090: 1510 16e9 f2f1 0706 e3e9 e2e6 e7f1 fe0c
000000a0: e205 ef0f e514 f8ea ef14 1cfa 19df 1113
000000b0: 1cf1 1b17 0fe3 f006 e01d 0cf6 1720 0015
000000c0: 04ee f10d f506 e6e7 13f4 1ee8 e1fb 181e
000000d0: 1ae6 171d 0fef f514 04e5 f211 ea0b 161e
000000e0: 14ef 0e15 e60d f9ff ef18 f91c ec03 07ed
000000f0: f71c e216 edf9 05ed 04ef 2001 0a13 1403
